ir_version: 6
producer_name: "pytorch"
producer_version: "1.5"
model_version: 0
graph {
  name: "torch-jit-export"
  node {
    input: "input.1"
    input: "stage1.rebnconvin.conv_s1.weight"
    input: "stage1.rebnconvin.conv_s1.bias"
    output: "799"
    name: "Conv_0"
    op_type: "Conv"
    attribute {
      name: "dilations"
      ints: 1
      ints: 1
      type: INTS
    }
    attribute {
      name: "group"
      i: 1
      type: INT
    }
    attribute {
      name: "kernel_shape"
      ints: 3
      ints: 3
      type: INTS
    }
    attribute {
      name: "pads"
      ints: 1
      ints: 1
      ints: 1
      ints: 1
      type: INTS
    }
    attribute {
      name: "strides"
      ints: 1
      ints: 1
      type: INTS
    }
  }
  node {
    input: "799"
    input: "stage1.rebnconvin.bn_s1.weight"
    input: "stage1.rebnconvin.bn_s1.bias"
    input: "stage1.rebnconvin.bn_s1.running_mean"
    input: "stage1.rebnconvin.bn_s1.running_var"
    output: "800"
    name: "BatchNormalization_1"
    op_type: "BatchNormalization"
    attribute {
      name: "epsilon"
      f: 9.999999747378752e-06
      type: FLOAT
    }
    attribute {
      name: "momentum"
      f: 0.8999999761581421
      type: FLOAT
    }
  }
  node {
    input: "800"
    output: "801"
    name: "Relu_2"
    op_type: "Relu"
  }
  node {
    input: "801"
    input: "stage1.rebnconv1.conv_s1.weight"
    input: "stage1.rebnconv1.conv_s1.bias"
    output: "802"
    name: "Conv_3"
    op_type: "Conv"
    attribute {
      name: "dilations"
      ints: 1
      ints: 1
      type: INTS
    }
    attribute {
      name: "group"
      i: 1
      type: INT
    }
    attribute {
      name: "kernel_shape"
      ints: 3
      ints: 3
      type: INTS
    }
    attribute {
      name: "pads"
      ints: 1
      ints: 1
      ints: 1
      ints: 1
      type: INTS
    }
    attribute {
      name: "strides"
      ints: 1
      ints: 1
      type: INTS
    }
  }
  node {
    input: "802"
    input: "stage1.rebnconv1.bn_s1.weight"
    input: "stage1.rebnconv1.bn_s1.bias"
    input: "stage1.rebnconv1.bn_s1.running_mean"
    input: "stage1.rebnconv1.bn_s1.running_var"
    output: "803"
    name: "BatchNormalization_4"
    op_type: "BatchNormalization"
    attribute {
      name: "epsilon"
      f: 9.999999747378752e-06
      type: FLOAT
    }
    attribute {
      name: "momentum"
      f: 0.8999999761581421
      type: FLOAT
    }
  }
  node {
    input: "803"
    output: "804"
    name: "Relu_5"
    op_type: "Relu"
  }
  node {
    input: "804"
    output: "805"
    name: "MaxPool_6"
    op_type: "MaxPool"
    attribute {
      name: "ceil_mode"
      i: 1
      type: INT
    }
    attribute {
      name: "kernel_shape"
      ints: 2
      ints: 2
      type: INTS
    }
    attribute {
      name: "pads"
      ints: 0
      ints: 0
      ints: 0
      ints: 0
      type: INTS
    }
    attribute {
      name: "strides"
      ints: 2
      ints: 2
      type: INTS
    }
  }
  node {
    input: "805"
    input: "stage1.rebnconv2.conv_s1.weight"
    input: "stage1.rebnconv2.conv_s1.bias"
    output: "806"
    name: "Conv_7"
    op_type: "Conv"
    attribute {
      name: "dilations"
      ints: 1
      ints: 1
      type: INTS
    }
    attribute {
      name: "group"
      i: 1
      type: INT
    }
    attribute {
      name: "kernel_shape"
      ints: 3
      ints: 3
      type: INTS
    }
    attribute {
      name: "pads"
      ints: 1
      ints: 1
      ints: 1
      ints: 1
      type: INTS
    }
    attribute {
      name: "strides"
      ints: 1
      ints: 1
      type: INTS
    }
  }
  node {
    input: "806"
    input: "stage1.rebnconv2.bn_s1.weight"
    input: "stage1.rebnconv2.bn_s1.bias"
    input: "stage1.rebnconv2.bn_s1.running_mean"
    input: "stage1.rebnconv2.bn_s1.running_var"
    output: "807"
    name: "BatchNormalization_8"
    op_type: "BatchNormalization"
    attribute {
      name: "epsilon"
      f: 9.999999747378752e-06
      type: FLOAT
    }
    attribute {
      name: "momentum"
      f: 0.8999999761581421
      type: FLOAT
    }
  }
  node {
    input: "807"
    output: "808"
    name: "Relu_9"
    op_type: "Relu"
  }
  node {
    input: "808"
    output: "809"
    name: "MaxPool_10"
    op_type: "MaxPool"
    attribute {
      name: "ceil_mode"
      i: 1
      type: INT
    }
    attribute {
      name: "kernel_shape"
      ints: 2
      ints: 2
      type: INTS
    }
    attribute {
      name: "pads"
      ints: 0
      ints: 0
      ints: 0
      ints: 0
      type: INTS
    }
    attribute {
      name: "strides"
      ints: 2
      ints: 2
      type: INTS
    }
  }
  node {
    input: "809"
    input: "stage1.rebnconv3.conv_s1.weight"
    input: "stage1.rebnconv3.conv_s1.bias"
    output: "810"
    name: "Conv_11"
    op_type: "Conv"
    attribute {
      name: "dilations"
      ints: 1
      ints: 1
      type: INTS
    }
    attribute {
      name: "group"
      i: 1
      type: INT
    }
    attribute {
      name: "kernel_shape"
      ints: 3
      ints: 3
      type: INTS
    }
    attribute {
      name: "pads"
      ints: 1
      ints: 1
      ints: 1
      ints: 1
      type: INTS
    }
    attribute {
      name: "strides"
      ints: 1
      ints: 1
      type: INTS
    }
  }
  node {
    input: "810"
    input: "stage1.rebnconv3.bn_s1.weight"
    input: "stage1.rebnconv3.bn_s1.bias"
    input: "stage1.rebnconv3.bn_s1.running_mean"
    input: "stage1.rebnconv3.bn_s1.running_var"
    output: "811"
    name: "BatchNormalization_12"
    op_type: "BatchNormalization"
    attribute {
      name: "epsilon"
      f: 9.999999747378752e-06
      type: FLOAT
    }
    attribute {
      name: "momentum"
      f: 0.8999999761581421
      type: FLOAT
    }
  }
  node {
    input: "811"
    output: "812"
    name: "Relu_13"
    op_type: "Relu"
  }
  node {
    input: "812"
    output: "813"
    name: "MaxPool_14"
    op_type: "MaxPool"
    attribute {
      name: "ceil_mode"
      i: 1
      type: INT
    }
    attribute {
      name: "kernel_shape"
      ints: 2
      ints: 2
      type: INTS
    }
    attribute {
      name: "pads"
      ints: 0
      ints: 0
      ints: 0
      ints: 0
      type: INTS
    }
    attribute {
      name: "strides"
      ints: 2
      ints: 2
      type: INTS
    }
  }
  node {
    input: "813"
    input: "stage1.rebnconv4.conv_s1.weight"
    input: "stage1.rebnconv4.conv_s1.bias"
    output: "814"
    name: "Conv_15"
    op_type: "Conv"
    attribute {
      name: "dilations"
      ints: 1
      ints: 1
      type: INTS
    }
    attribute {
      name: "group"
      i: 1
      type: INT
    }
    attribute {
      name: "kernel_shape"
      ints: 3
      ints: 3
      type: INTS
    }
    attribute {
      name: "pads"
      ints: 1
      ints: 1
      ints: 1
      ints: 1
      type: INTS
    }
    attribute {
      name: "strides"
      ints: 1
      ints: 1
      type: INTS
    }
  }
  node {
    input: "814"
    input: "stage1.rebnconv4.bn_s1.weight"
    input: "stage1.rebnconv4.bn_s1.bias"
    input: "stage1.rebnconv4.bn_s1.running_mean"
    input: "stage1.rebnconv4.bn_s1.running_var"
    output: "815"
    name: "BatchNormalization_16"
    op_type: "BatchNormalization"
    attribute {
      name: "epsilon"
      f: 9.999999747378752e-06
      type: FLOAT
    }
    attribute {
      name: "momentum"
      f: 0.8999999761581421
      type: FLOAT
    }
  }
  node {
    input: "815"
    output: "816"
    name: "Relu_17"
    op_type: "Relu"
  }
  node {
    input: "816"
    output: "817"
    name: "MaxPool_18"
    op_type: "MaxPool"
    attribute {
      name: "ceil_mode"
      i: 1
      type: INT
    }
    attribute {
      name: "kernel_shape"
      ints: 2
      ints: 2
      type: INTS
    }
    attribute {
      name: "pads"
      ints: 0
      ints: 0
      ints: 0
      ints: 0
      type: INTS
    }
    attribute {
      name: "strides"
      ints: 2
      ints: 2
      type: INTS
    }
  }
  node {
    input: "817"
    input: "stage1.rebnconv5.conv_s1.weight"
    input: "stage1.rebnconv5.conv_s1.bias"
    output: "818"
    name: "Conv_19"
    op_type: "Conv"
    attribute {
      name: "dilations"
      ints: 1
      ints: 1
      type: INTS
    }
    attribute {
      name: "group"
      i: 1
      type: INT
    }
    attribute {
      name: "kernel_shape"
      ints: 3
      ints: 3
      type: INTS
    }
    attribute {
      name: "pads"
      ints: 1
      ints: 1
      ints: 1
      ints: 1
      type: INTS
    }
    attribute {
      name: "strides"
      ints: 1
      ints: 1
      type: INTS
    }
  }
  node {
    input: "818"
    input: "stage1.rebnconv5.bn_s1.weight"
    input: "stage1.rebnconv5.bn_s1.bias"
    input: "stage1.rebnconv5.bn_s1.running_mean"
    input: "stage1.rebnconv5.bn_s1.running_var"
    output: "819"
    name: "BatchNormalization_20"
    op_type: "BatchNormalization"
    attribute {
      name: "epsilon"
      f: 9.999999747378752e-06
      type: FLOAT
    }
    attribute {
      name: "momentum"
      f: 0.8999999761581421
      type: FLOAT
    }
  }
  node {
    input: "819"
    output: "820"
    name: "Relu_21"
    op_type: "Relu"
  }
  node {
    input: "820"
    output: "821"
    name: "MaxPool_22"
    op_type: "MaxPool"
    attribute {
      name: "ceil_mode"
      i: 1
      type: INT
    }
    attribute {
      name: "kernel_shape"
      ints: 2
      ints: 2
      type: INTS
    }
    attribute {
      name: "pads"
      ints: 0
      ints: 0
      ints: 0
      ints: 0
      type: INTS
    }
    attribute {
      name: "strides"
      ints: 2
      ints: 2
      type: INTS
    }
  }
  node {
    input: "821"
    input: "stage1.rebnconv6.conv_s1.weight"
    input: "stage1.rebnconv6.conv_s1.bias"
    output: "822"
    name: "Conv_23"
    op_type: "Conv"
    attribute {
      name: "dilations"
      ints: 1
      ints: 1
      type: INTS
    }
    attribute {
      name: "group"
      i: 1
      type: INT
    }
    attribute {
      name: "kernel_shape"
      ints: 3
      ints: 3
      type: INTS
    }
    attribute {
      name: "pads"
      ints: 1
      ints: 1
      ints: 1
      ints: 1
      type: INTS
    }
    attribute {
      name: "strides"
      ints: 1
      ints: 1
      type: INTS
    }
  }
  node {
    input: "822"
    input: "stage1.rebnconv6.bn_s1.weight"
    input: "stage1.rebnconv6.bn_s1.bias"
    input: "stage1.rebnconv6.bn_s1.running_mean"
    input: "stage1.rebnconv6.bn_s1.running_var"
    output: "823"
    name: "BatchNormalization_24"
    op_type: "BatchNormalization"
    attribute {
      name: "epsilon"
      f: 9.999999747378752e-06
      type: FLOAT
    }
    attribute {
      name: "momentum"
      f: 0.8999999761581421
      type: FLOAT
    }
  }
  node {
    input: "823"
    output: "824"
    name: "Relu_25"
    op_type: "Relu"
  }
  node {
    input: "824"
    input: "stage1.rebnconv7.conv_s1.weight"
    input: "stage1.rebnconv7.conv_s1.bias"
    output: "825"
    name: "Conv_26"
    op_type: "Conv"
    attribute {
      name: "dilations"
      ints: 2
      ints: 2
      type: INTS
    }
    attribute {
      name: "group"
      i: 1
      type: INT
    }
    attribute {
      name: "kernel_shape"
      ints: 3
      ints: 3
      type: INTS
    }
    attribute {
      name: "pads"
      ints: 2
      ints: 2
      ints: 2
      ints: 2
      type: INTS
    }
    attribute {
      name: "strides"
      ints: 1
      ints: 1
      type: INTS
    }
  }
  node {
    input: "825"
    input: "stage1.rebnconv7.bn_s1.weight"
    input: "stage1.rebnconv7.bn_s1.bias"
    input: "stage1.rebnconv7.bn_s1.running_mean"
    input: "stage1.rebnconv7.bn_s1.running_var"
    output: "826"
    name: "BatchNormalization_27"
    op_type: "BatchNormalization"
    attribute {
      name: "epsilon"
      f: 9.999999747378752e-06
      type: FLOAT
    }
    attribute {
      name: "momentum"
      f: 0.8999999761581421
      type: FLOAT
    }
  }
  node {
    input: "826"
    output: "827"
    name: "Relu_28"
    op_type: "Relu"
  }
  node {
    input: "827"
    input: "824"
    output: "828"
    name: "Concat_29"
    op_type: "Concat"
    attribute {
      name: "axis"
      i: 1
      type: INT
    }
  }
  node {
    input: "828"
    input: "stage1.rebnconv6d.conv_s1.weight"
    input: "stage1.rebnconv6d.conv_s1.bias"
    output: "829"
    name: "Conv_30"
    op_type: "Conv"
    attribute {
      name: "dilations"
      ints: 1
      ints: 1
      type: INTS
    }
    attribute {
      name: "group"
      i: 1
      type: INT
    }
    attribute {
      name: "kernel_shape"
      ints: 3
      ints: 3
      type: INTS
    }
    attribute {
      name: "pads"
      ints: 1
      ints: 1
      ints: 1
      ints: 1
      type: INTS
    }
    attribute {
      name: "strides"
      ints: 1
      ints: 1
      type: INTS
    }
  }
  node {
    input: "829"
    input: "stage1.rebnconv6d.bn_s1.weight"
    input: "stage1.rebnconv6d.bn_s1.bias"
    input: "stage1.rebnconv6d.bn_s1.running_mean"
    input: "stage1.rebnconv6d.bn_s1.running_var"
    output: "830"
    name: "BatchNormalization_31"
    op_type: "BatchNormalization"
    attribute {
      name: "epsilon"
      f: 9.999999747378752e-06
      type: FLOAT
    }
    attribute {
      name: "momentum"
      f: 0.8999999761581421
      type: FLOAT
    }
  }
  node {
    input: "830"
    output: "831"
    name: "Relu_32"
    op_type: "Relu"
  }
  node {
    input: "820"
    output: "832"
    name: "Shape_33"
    op_type: "Shape"
  }
  node {
    output: "833"
    name: "Constant_34"
    op_type: "Constant"
    attribute {
      name: "value"
      t {
        data_type: 7
      }
      type: TENSOR
    }
  }
  node {
    input: "832"
    input: "833"
    output: "834"
    name: "Gather_35"
    op_type: "Gather"
    attribute {
      name: "axis"
      i: 0
      type: INT
    }
  }
  node {
    input: "820"
    output: "835"
    name: "Shape_36"
    op_type: "Shape"
  }
  node {
    output: "836"
    name: "Constant_37"
    op_type: "Constant"
    attribute {
      name: "value"
      t {
        data_type: 7
      }
      type: TENSOR
    }
  }
  node {
    input: "835"
    input: "836"
    output: "837"
    name: "Gather_38"
    op_type: "Gather"
    attribute {
      name: "axis"
      i: 0
      type: INT
    }
  }
  node {
    input: "834"
    output: "838"
    name: "Unsqueeze_39"
    op_type: "Unsqueeze"
    attribute {
      name: "axes"
      ints: 0
      type: INTS
    }
  }
  node {
    input: "837"
    output: "839"
    name: "Unsqueeze_40"
    op_type: "Unsqueeze"
    attribute {
      name: "axes"
      ints: 0
      type: INTS
    }
  }
  node {
    input: "838"
    input: "839"
    output: "840"
    name: "Concat_41"
    op_type: "Concat"
    attribute {
      name: "axis"
      i: 0
      type: INT
    }
  }
  node {
    output: "841"
    name: "Constant_42"
    op_type: "Constant"
    attribute {
      name: "value"
      t {
        dims: 0
        data_type: 1
      }
      type: TENSOR
    }
  }
  node {
    input: "831"
    output: "842"
    name: "Shape_43"
    op_type: "Shape"
  }
  node {
    output: "843"
    name: "Constant_44"
    op_type: "Constant"
    attribute {
      name: "value"
      t {
        dims: 1
        data_type: 7
      }
      type: TENSOR
    }
  }
  node {
    output: "844"
    name: "Constant_45"
    op_type: "Constant"
    attribute {
      name: "value"
      t {
        dims: 1
        data_type: 7
      }
      type: TENSOR
    }
  }
  node {
    output: "845"
    name: "Constant_46"
    op_type: "Constant"
    attribute {
      name: "value"
      t {
        dims: 1
        data_type: 7
      }
      type: TENSOR
    }
  }
  node {
    input: "842"
    input: "844"
    input: "845"
    input: "843"
    output: "846"
    name: "Slice_47"
    op_type: "Slice"
  }
  node {
    input: "840"
    output: "847"
    name: "Cast_48"
    op_type: "Cast"
    attribute {
      name: "to"
      i: 7
      type: INT
    }
  }
  node {
    input: "846"
    input: "847"
    output: "848"
    name: "Concat_49"
    op_type: "Concat"
    attribute {
      name: "axis"
      i: 0
      type: INT
    }
  }
  node {
    output: "849"
    name: "Constant_50"
    op_type: "Constant"
    attribute {
      name: "value"
      t {
        dims: 0
        data_type: 1
      }
      type: TENSOR
    }
  }
  node {
    input: "831"
    input: "841"
    input: "849"
    input: "848"
    output: "850"
    name: "Resize_51"
    op_type: "Resize"
    attribute {
      name: "coordinate_transformation_mode"
      s: "pytorch_half_pixel"
      type: STRING
    }
    attribute {
      name: "cubic_coeff_a"
      f: -0.75
      type: FLOAT
    }
    attribute {
      name: "mode"
      s: "linear"
      type: STRING
    }
    attribute {
      name: "nearest_mode"
      s: "floor"
      type: STRING
    }
  }
  node {
    input: "850"
    input: "820"
    output: "851"
    name: "Concat_52"
    op_type: "Concat"
    attribute {
      name: "axis"
      i: 1
      type: INT
    }
  }
  node {
    input: "851"
    input: "stage1.rebnconv5d.conv_s1.weight"
    input: "stage1.rebnconv5d.conv_s1.bias"
    output: "852"
    name: "Conv_53"
    op_type: "Conv"
    attribute {
      name: "dilations"
      ints: 1
      ints: 1
      type: INTS
    }
    attribute {
      name: "group"
      i: 1
      type: INT
    }
    attribute {
      name: "kernel_shape"
      ints: 3
      ints: 3
      type: INTS
    }
    attribute {
      name: "pads"
      ints: 1
      ints: 1
      ints: 1
      ints: 1
      type: INTS
    }
    attribute {
      name: "strides"
      ints: 1
      ints: 1
      type: INTS
    }
  }
  node {
    input: "852"
    input: "stage1.rebnconv5d.bn_s1.weight"
    input: "stage1.rebnconv5d.bn_s1.bias"
    input: "stage1.rebnconv5d.bn_s1.running_mean"
    input: "stage1.rebnconv5d.bn_s1.running_var"
    output: "853"
    name: "BatchNormalization_54"
    op_type: "BatchNormalization"
    attribute {
      name: "epsilon"
      f: 9.999999747378752e-06
      type: FLOAT
    }
    attribute {
      name: "momentum"
      f: 0.8999999761581421
      type: FLOAT
    }
  }
  node {
    input: "853"
    output: "854"
    name: "Relu_55"
    op_type: "Relu"
  }
  node {
    input: "816"
    output: "855"
    name: "Shape_56"
    op_type: "Shape"
  }
  node {
    output: "856"
    name: "Constant_57"
    op_type: "Constant"
    attribute {
      name: "value"
      t {
        data_type: 7
      }
      type: TENSOR
    }
  }
  node {
    input: "855"
    input: "856"
    output: "857"
    name: "Gather_58"
    op_type: "Gather"
    attribute {
      name: "axis"
      i: 0
      type: INT
    }
  }
  node {
    input: "816"
    output: "858"
    name: "Shape_59"
    op_type: "Shape"
  }
  node {
    output: "859"
    name: "Constant_60"
    op_type: "Constant"
    attribute {
      name: "value"
      t {
        data_type: 7
      }
      type: TENSOR
    }
  }
  node {
    input: "858"
    input: "859"
    output: "860"
    name: "Gather_61"
    op_type: "Gather"
    attribute {
      name: "axis"
      i: 0
      type: INT
    }
  }
  node {
    input: "857"
    output: "861"
    name: "Unsqueeze_62"
    op_type: "Unsqueeze"
    attribute {
      name: "axes"
      ints: 0
      type: INTS
    }
  }
  node {
    input: "860"
    output: "862"
    name: "Unsqueeze_63"
    op_type: "Unsqueeze"
    attribute {
      name: "axes"
      ints: 0
      type: INTS
    }
  }
  node {
    input: "861"
    input: "862"
    output: "863"
    name: "Concat_64"
    op_type: "Concat"
    attribute {
      name: "axis"
      i: 0
      type: INT
    }
  }
  node {
    output: "864"
    name: "Constant_65"
    op_type: "Constant"
    attribute {
      name: "value"
      t {
        dims: 0
        data_type: 1
      }
      type: TENSOR
    }
  }
  node {
    input: "854"
    output: "865"
    name: "Shape_66"
    op_type: "Shape"
  }
  node {
    output: "866"
    name: "Constant_67"
    op_type: "Constant"
    attribute {
      name: "value"
      t {
        dims: 1
        data_type: 7
      }
      type: TENSOR
    }
  }
  node {
    output: "867"
    name: "Constant_68"
    op_type: "Constant"
    attribute {
      name: "value"
      t {
        dims: 1
        data_type: 7
      }
      type: TENSOR
    }
  }
  node {
    output: "868"
    name: "Constant_69"
    op_type: "Constant"
    attribute {
      name: "value"
      t {
        dims: 1
        data_type: 7
      }
      type: TENSOR
    }
  }
  node {
    input: "865"
    input: "867"
    input: "868"
    input: "866"
    output: "869"
    name: "Slice_70"
    op_type: "Slice"
  }
  node {
    input: "863"
    output: "870"
    name: "Cast_71"
    op_type: "Cast"
    attribute {
      name: "to"
      i: 7
      type: INT
    }
  }
  node {
    input: "869"
    input: "870"
    output: "871"
    name: "Concat_72"
    op_type: "Concat"
    attribute {
      name: "axis"
      i: 0
      type: INT
    }
  }
  node {
    output: "872"
    name: "Constant_73"
    op_type: "Constant"
    attribute {
      name: "value"
      t {
        dims: 0
        data_type: 1
      }
      type: TENSOR
    }
  }
  node {
    input: "854"
    input: "864"
    input: "872"
    input: "871"
    output: "873"
    name: "Resize_74"
    op_type: "Resize"
    attribute {
      name: "coordinate_transformation_mode"
      s: "pytorch_half_pixel"
      type: STRING
    }
    attribute {
      name: "cubic_coeff_a"
      f: -0.75
      type: FLOAT
    }
    attribute {
      name: "mode"
      s: "linear"
      type: STRING
    }
    attribute {
      name: "nearest_mode"
      s: "floor"
      type: STRING
    }
  }
  node {
    input: "873"
    input: "816"
    output: "874"
    name: "Concat_75"
    op_type: "Concat"
    attribute {
      name: "axis"
      i: 1
      type: INT
    }
  }
  node {
    input: "874"
    input: "stage1.rebnconv4d.conv_s1.weight"
    input: "stage1.rebnconv4d.conv_s1.bias"
    output: "875"
    name: "Conv_76"
    op_type: "Conv"
    attribute {
      name: "dilations"
      ints: 1
      ints: 1
      type: INTS
    }
    attribute {
      name: "group"
      i: 1
      type: INT
    }
    attribute {
      name: "kernel_shape"
      ints: 3
      ints: 3
      type: INTS
    }
    attribute {
      name: "pads"
      ints: 1
      ints: 1
      ints: 1
      ints: 1
      type: INTS
    }
    attribute {
      name: "strides"
      ints: 1
      ints: 1
      type: INTS
    }
  }
  node {
    input: "875"
    input: "stage1.rebnconv4d.bn_s1.weight"
    input: "stage1.rebnconv4d.bn_s1.bias"
    input: "stage1.rebnconv4d.bn_s1.running_mean"
    input: "stage1.rebnconv4d.bn_s1.running_var"
    output: "876"
    name: "BatchNormalization_77"
    op_type: "BatchNormalization"
    attribute {
      name: "epsilon"
      f: 9.999999747378752e-06
      type: FLOAT
    }
    attribute {
      name: "momentum"
      f: 0.8999999761581421
      type: FLOAT
    }
  }
  node {
    input: "876"
    output: "877"
    name: "Relu_78"
    op_type: "Relu"
  }
  node {
    input: "812"
    output: "878"
    name: "Shape_79"
    op_type: "Shape"
  }
  node {
    output: "879"
    name: "Constant_80"
    op_type: "Constant"
    attribute {
      name: "value"
      t {
        data_type: 7
      }
      type: TENSOR
    }
  }
  node {
    input: "878"
    input: "879"
    output: "880"
    name: "Gather_81"
    op_type: "Gather"
    attribute {
      name: "axis"
      i: 0
      type: INT
    }
  }
  node {
    input: "812"
    output: "881"
    name: "Shape_82"
    op_type: "Shape"
  }
  node {
    output: "882"
    name: "Constant_83"
    op_type: "Constant"
    attribute {
      name: "value"
      t {
        data_type: 7
      }
      type: TENSOR
    }
  }
  node {
    input: "881"
    input: "882"
    output: "883"
    name: "Gather_84"
    op_type: "Gather"
    attribute {
      name: "axis"
      i: 0
      type: INT
    }
  }
  node {
    input: "880"
    output: "884"
    name: "Unsqueeze_85"
    op_type: "Unsqueeze"
    attribute {
      name: "axes"
      ints: 0
      type: INTS
    }
  }
  node {
    input: "883"
    output: "885"
    name: "Unsqueeze_86"
    op_type: "Unsqueeze"
    attribute {
      name: "axes"
      ints: 0
      type: INTS
    }
  }
  node {
    input: "884"
    input: "885"
    output: "886"
    name: "Concat_87"
    op_type: "Concat"
    attribute {
      name: "axis"
      i: 0
      type: INT
    }
  }
  node {
    output: "887"
    name: "Constant_88"
    op_type: "Constant"
    attribute {
      name: "value"
      t {
        dims: 0
        data_type: 1
      }
      type: TENSOR
    }
  }
  node {
    input: "877"
    output: "888"
    name: "Shape_89"
    op_type: "Shape"
  }
  node {
    output: "889"
    name: "Constant_90"
    op_type: "Constant"
    attribute {
      name: "value"
      t {
        dims: 1
        data_type: 7
      }
      type: TENSOR
    }
  }
  node {
    output: "890"
    name: "Constant_91"
    op_type: "Constant"
    attribute {
      name: "value"
      t {
        dims: 1
        data_type: 7
      }
      type: TENSOR
    }
  }
  node {
    output: "891"
    name: "Constant_92"
    op_type: "Constant"
    attribute {
      name: "value"
      t {
        dims: 1
        data_type: 7
      }
      type: TENSOR
    }
  }
  node {
    input: "888"
    input: "890"
    input: "891"
    input: "889"
    output: "892"
    name: "Slice_93"
    op_type: "Slice"
  }
  node {
    input: "886"
    output: "893"
    name: "Cast_94"
    op_type: "Cast"
    attribute {
      name: "to"
      i: 7
      type: INT
    }
  }
  node {
    input: "892"
    input: "893"
    output: "894"
    name: "Concat_95"
    op_type: "Concat"
    attribute {
      name: "axis"
      i: 0
      type: INT
    }
  }
  node {
    output: "895"
    name: "Constant_96"
    op_type: "Constant"
    attribute {
      name: "value"
      t {
        dims: 0
        data_type: 1
      }
      type: TENSOR
    }
  }
  node {
    input: "877"
    input: "887"
    input: "895"
    input: "894"
    output: "896"
    name: "Resize_97"
    op_type: "Resize"
    attribute {
      name: "coordinate_transformation_mode"
      s: "pytorch_half_pixel"
      type: STRING
    }
    attribute {
      name: "cubic_coeff_a"
      f: -0.75
      type: FLOAT
    }
    attribute {
      name: "mode"
      s: "linear"
      type: STRING
    }
    attribute {
      name: "nearest_mode"
      s: "floor"
      type: STRING
    }
  }
  node {
    input: "896"
    input: "812"
    output: "897"
    name: "Concat_98"
    op_type: "Concat"
    attribute {
      name: "axis"
      i: 1
      type: INT
    }
  }
  node {
    input: "897"
    input: "stage1.rebnconv3d.conv_s1.weight"
    input: "stage1.rebnconv3d.conv_s1.bias"
    output: "898"
    name: "Conv_99"
    op_type: "Conv"
    attribute {
      name: "dilations"
      ints: 1
      ints: 1
      type: INTS
    }
    attribute {
      name: "group"
      i: 1
      type: INT
    }
    attribute {
      name: "kernel_shape"
      ints: 3
      ints: 3
      type: INTS
    }
    attribute {
      name: "pads"
      ints: 1
      ints: 1
      ints: 1
      ints: 1
      type: INTS
    }
    attribute {
      name: "strides"
      ints: 1
      ints: 1
      type: INTS
    }
  }
  node {
    input: "898"
    input: "stage1.rebnconv3d.bn_s1.weight"
    input: "stage1.rebnconv3d.bn_s1.bias"
    input: "stage1.rebnconv3d.bn_s1.running_mean"
    input: "stage1.rebnconv3d.bn_s1.running_var"
    output: "899"
    name: "BatchNormalization_100"
    op_type: "BatchNormalization"
    attribute {
      name: "epsilon"
      f: 9.999999747378752e-06
      type: FLOAT
    }
    attribute {
      name: "momentum"
      f: 0.8999999761581421
      type: FLOAT
    }
  }
  node {
    input: "899"
    output: "900"
    name: "Relu_101"
    op_type: "Relu"
  }
  node {
    input: "808"
    output: "901"
    name: "Shape_102"
    op_type: "Shape"
  }
  node {
    output: "902"
    name: "Constant_103"
    op_type: "Constant"
    attribute {
      name: "value"
      t {
        data_type: 7
      }
      type: TENSOR
    }
  }
  node {
    input: "901"
    input: "902"
    output: "903"
    name: "Gather_104"
    op_type: "Gather"
    attribute {
      name: "axis"
      i: 0
      type: INT
    }
  }
  node {
    input: "808"
    output: "904"
    name: "Shape_105"
    op_type: "Shape"
  }
  node {
    output: "905"
    name: "Constant_106"
    op_type: "Constant"
    attribute {
      name: "value"
      t {
        data_type: 7
      }
      type: TENSOR
    }
  }
  node {
    input: "904"
    input: "905"
    output: "906"
    name: "Gather_107"
    op_type: "Gather"
    attribute {
      name: "axis"
      i: 0
      type: INT
    }
  }
  node {
    input: "903"
    output: "907"
    name: "Unsqueeze_108"
    op_type: "Unsqueeze"
    attribute {
      name: "axes"
      ints: 0
      type: INTS
    }
  }
  node {
    input: "906"
    output: "908"
    name: "Unsqueeze_109"
    op_type: "Unsqueeze"
    attribute {
      name: "axes"
      ints: 0
      type: INTS
    }
  }
  node {
    input: "907"
    input: "908"
    output: "909"
    name: "Concat_110"
    op_type: "Concat"
    attribute {
      name: "axis"
      i: 0
      type: INT
    }
  }
  node {
    output: "910"
    name: "Constant_111"
    op_type: "Constant"
    attribute {
      name: "value"
      t {
        dims: 0
        data_type: 1
      }
      type: TENSOR
    }
  }
  node {
    input: "900"
    output: "911"
    name: "Shape_112"
    op_type: "Shape"
  }
  node {
    output: "912"
    name: "Constant_113"
    op_type: "Constant"
    attribute {
      name: "value"
      t {
        dims: 1
        data_type: 7
      }
      type: TENSOR
    }
  }
  node {
    output: "913"
    name: "Constant_114"
    op_type: "Constant"
    attribute {
      name: "value"
      t {
        dims: 1
        data_type: 7
      }
      type: TENSOR
    }
  }
  node {
    output: "914"
    name: "Constant_115"
    op_type: "Constant"
    attribute {
      name: "value"
      t {
        dims: 1
        data_type: 7
      }
      type: TENSOR
    }
  }
  node {
    input: "911"
    input: "913"
    input: "914"
    input: "912"
    output: "915"
    name: "Slice_116"
    op_type: "Slice"
  }
  node {
    input: "909"
    output: "916"
    name: "Cast_117"
    op_type: "Cast"
    attribute {
      name: "to"
      i: 7
      type: INT
    }
  }
  node {
    input: "915"
    input: "916"
    output: "917"
    name: "Concat_118"
    op_type: "Concat"
    attribute {
      name: "axis"
      i: 0
      type: INT
    }
  }
  node {
    output: "918"
    name: "Constant_119"
    op_type: "Constant"
    attribute {
      name: "value"
      t {
        dims: 0
        data_type: 1
      }
      type: TENSOR
    }
  }
  node {
    input: "900"
    input: "910"
    input: "918"
    input: "917"
    output: "919"
    name: "Resize_120"
    op_type: "Resize"
    attribute {
      name: "coordinate_transformation_mode"
      s: "pytorch_half_pixel"
      type: STRING
    }
    attribute {
      name: "cubic_coeff_a"
      f: -0.75
      type: FLOAT
    }
    attribute {
      name: "mode"
      s: "linear"
      type: STRING
    }
    attribute {
      name: "nearest_mode"
      s: "floor"
      type: STRING
    }
  }
  node {
    input: "919"
    input: "808"
    output: "920"
    name: "Concat_121"
    op_type: "Concat"
    attribute {
      name: "axis"
      i: 1
      type: INT
    }
  }
  node {
    input: "920"
    input: "stage1.rebnconv2d.conv_s1.weight"
    input: "stage1.rebnconv2d.conv_s1.bias"
    output: "921"
    name: "Conv_122"
    op_type: "Conv"
    attribute {
      name: "dilations"
      ints: 1
      ints: 1
      type: INTS
    }
    attribute {
      name: "group"
      i: 1
      type: INT
    }
    attribute {
      name: "kernel_shape"
      ints: 3
      ints: 3
      type: INTS
    }
    attribute {
      name: "pads"
      ints: 1
      ints: 1
      ints: 1
      ints: 1
      type: INTS
    }
    attribute {
      name: "strides"
      ints: 1
      ints: 1
      type: INTS
    }
  }
  node {
    input: "921"
    input: "stage1.rebnconv2d.bn_s1.weight"
    input: "stage1.rebnconv2d.bn_s1.bias"
    input: "stage1.rebnconv2d.bn_s1.running_mean"
    input: "stage1.rebnconv2d.bn_s1.running_var"
    output: "922"
    name: "BatchNormalization_123"
    op_type: "BatchNormalization"
    attribute {
      name: "epsilon"
      f: 9.999999747378752e-06
      type: FLOAT
    }
    attribute {
      name: "momentum"
      f: 0.8999999761581421
      type: FLOAT
    }
  }
  node {
    input: "922"
    output: "923"
    name: "Relu_124"
    op_type: "Relu"
  }
  node {
    input: "804"
    output: "924"
    name: "Shape_125"
    op_type: "Shape"
  }
  node {
    output: "925"
    name: "Constant_126"
    op_type: "Constant"
    attribute {
      name: "value"
      t {
        data_type: 7
      }
      type: TENSOR
    }
  }
  node {
    input: "924"
    input: "925"
    output: "926"
    name: "Gather_127"
    op_type: "Gather"
    attribute {
      name: "axis"
      i: 0
      type: INT
    }
  }
  node {
    input: "804"
    output: "927"
    name: "Shape_128"
    op_type: "Shape"
  }
  node {
    output: "928"
    name: "Constant_129"
    op_type: "Constant"
    attribute {
      name: "value"
      t {
        data_type: 7
      }
      type: TENSOR
    }
  }
  node {
    input: "927"
    input: "928"
    output: "929"
    name: "Gather_130"
    op_type: "Gather"
    attribute {
      name: "axis"
      i: 0
      type: INT
    }
  }
  node {
    input: "926"
    output: "930"
    name: "Unsqueeze_131"
    op_type: "Unsqueeze"
    attribute {
      name: "axes"
      ints: 0
      type: INTS
    }
  }
  node {
    input: "929"
    output: "931"
    name: "Unsqueeze_132"
    op_type: "Unsqueeze"
    attribute {
      name: "axes"
      ints: 0
      type: INTS
    }
  }
  node {
    input: "930"
    input: "931"
    output: "932"
    name: "Concat_133"
    op_type: "Concat"
    attribute {
      name: "axis"
      i: 0
      type: INT
    }
  }
  node {
    output: "933"
    name: "Constant_134"
    op_type: "Constant"
    attribute {
      name: "value"
      t {
        dims: 0
        data_type: 1
      }
      type: TENSOR
    }
  }
  node {
    input: "923"
    output: "934"
    name: "Shape_135"
    op_type: "Shape"
  }
  node {
    output: "935"
    name: "Constant_136"
    op_type: "Constant"
    attribute {
      name: "value"
      t {
        dims: 1
        data_type: 7
      }
      type: TENSOR
    }
  }
  node {
    output: "936"
    name: "Constant_137"
    op_type: "Constant"
    attribute {
      name: "value"
      t {
        dims: 1
        data_type: 7
      }
      type: TENSOR
    }
  }
  node {
    output: "937"
    name: "Constant_138"
    op_type: "Constant"
    attribute {
      name: "value"
      t {
        dims: 1
        data_type: 7
      }
      type: TENSOR
    }
  }
  node {
    input: "934"
    input: "936"
    input: "937"
    input: "935"
    output: "938"
    name: "Slice_139"
    op_type: "Slice"
  }
  node {
    input: "932"
    output: "939"
    name: "Cast_140"
    op_type: "Cast"
    attribute {
      name: "to"
      i: 7
      type: INT
    }
  }
  node {
    input: "938"
    input: "939"
    output: "940"
    name: "Concat_141"
    op_type: "Concat"
    attribute {
      name: "axis"
      i: 0
      type: INT
    }
  }
  node {
    output: "941"
    name: "Constant_142"
    op_type: "Constant"
    attribute {
      name: "value"
      t {
        dims: 0
        data_type: 1
      }
      type: TENSOR
    }
  }
  node {
    input: "923"
    input: "933"
    input: "941"
    input: "940"
    output: "942"
    name: "Resize_143"
    op_type: "Resize"
    attribute {
      name: "coordinate_transformation_mode"
      s: "pytorch_half_pixel"
      type: STRING
    }
    attribute {
      name: "cubic_coeff_a"
      f: -0.75
      type: FLOAT
    }
    attribute {
      name: "mode"
      s: "linear"
      type: STRING
    }
    attribute {
      name: "nearest_mode"
      s: "floor"
      type: STRING
    }
  }
  node {
    input: "942"
    input: "804"
    output: "943"
    name: "Concat_144"
    op_type: "Concat"
    attribute {
      name: "axis"
      i: 1
      type: INT
    }
  }
  node {
    input: "943"
    input: "stage1.rebnconv1d.conv_s1.weight"
    input: "stage1.rebnconv1d.conv_s1.bias"
    output: "944"
    name: "Conv_145"
    op_type: "Conv"
    attribute {
      name: "dilations"
      ints: 1
      ints: 1
      type: INTS
    }
    attribute {
      name: "group"
      i: 1
      type: INT
    }
    attribute {
      name: "kernel_shape"
      ints: 3
      ints: 3
      type: INTS
    }
    attribute {
      name: "pads"
      ints: 1
      ints: 1
      ints: 1
      ints: 1
      type: INTS
    }
    attribute {
      name: "strides"
      ints: 1
      ints: 1
      type: INTS
    }
  }
  node {
    input: "944"
    input: "stage1.rebnconv1d.bn_s1.weight"
    input: "stage1.rebnconv1d.bn_s1.bias"
    input: "stage1.rebnconv1d.bn_s1.running_mean"
    input: "stage1.rebnconv1d.bn_s1.running_var"
    output: "945"
    name: "BatchNormalization_146"
    op_type: "BatchNormalization"
    attribute {
      name: "epsilon"
      f: 9.999999747378752e-06
      type: FLOAT
    }
    attribute {
      name: "momentum"
      f: 0.8999999761581421
      type: FLOAT
    }
  }
  node {
    input: "945"
    output: "946"
    name: "Relu_147"
    op_type: "Relu"
  }
  node {
    input: "946"
    input: "801"
    output: "947"
    name: "Add_148"
    op_type: "Add"
  }
  node {
    input: "947"
    output: "948"
    name: "MaxPool_149"
    op_type: "MaxPool"
    attribute {
      name: "ceil_mode"
      i: 1
      type: INT
    }
    attribute {
      name: "kernel_shape"
      ints: 2
      ints: 2
      type: INTS
    }
    attribute {
      name: "pads"
      ints: 0
      ints: 0
      ints: 0
      ints: 0
      type: INTS
    }
    attribute {
      name: "strides"
      ints: 2
      ints: 2
      type: INTS
    }
  }
  node {
    input: "948"
    input: "stage2.rebnconvin.conv_s1.weight"
    input: "stage2.rebnconvin.conv_s1.bias"
    output: "949"
    name: "Conv_150"
    op_type: "Conv"
    attribute {
      name: "dilations"
      ints: 1
      ints: 1
      type: INTS
    }
    attribute {
      name: "group"
      i: 1
      type: INT
    }
    attribute {
      name: "kernel_shape"
      ints: 3
      ints: 3
      type: INTS
    }
    attribute {
      name: "pads"
      ints: 1
      ints: 1
      ints: 1
      ints: 1
      type: INTS
    }
    attribute {
      name: "strides"
      ints: 1
      ints: 1
      type: INTS
    }
  }
  node {
    input: "949"
    input: "stage2.rebnconvin.bn_s1.weight"
    input: "stage2.rebnconvin.bn_s1.bias"
    input: "stage2.rebnconvin.bn_s1.running_mean"
    input: "stage2.rebnconvin.bn_s1.running_var"
    output: "950"
    name: "BatchNormalization_151"
    op_type: "BatchNormalization"
    attribute {
      name: "epsilon"
      f: 9.999999747378752e-06
      type: FLOAT
    }
    attribute {
      name: "momentum"
      f: 0.8999999761581421
      type: FLOAT
    }
  }
  node {
    input: "950"
    output: "951"
    name: "Relu_152"
    op_type: "Relu"
  }
  node {
    input: "951"
    input: "stage2.rebnconv1.conv_s1.weight"
    input: "stage2.rebnconv1.conv_s1.bias"
    output: "952"
    name: "Conv_153"
    op_type: "Conv"
    attribute {
      name: "dilations"
      ints: 1
      ints: 1
      type: INTS
    }
    attribute {
      name: "group"
      i: 1
      type: INT
    }
    attribute {
      name: "kernel_shape"
      ints: 3
      ints: 3
      type: INTS
    }
    attribute {
      name: "pads"
      ints: 1
      ints: 1
      ints: 1
      ints: 1
      type: INTS
    }
    attribute {
      name: "strides"
      ints: 1
      ints: 1
      type: INTS
    }
  }
  node {
    input: "952"
    input: "stage2.rebnconv1.bn_s1.weight"
    input: "stage2.rebnconv1.bn_s1.bias"
    input: "stage2.rebnconv1.bn_s1.running_mean"
    input: "stage2.rebnconv1.bn_s1.running_var"
    output: "953"
    name: "BatchNormalization_154"
    op_type: "BatchNormalization"
    attribute {
      name: "epsilon"
      f: 9.999999747378752e-06
      type: FLOAT
    }
    attribute {
      name: "momentum"
      f: 0.8999999761581421
      type: FLOAT
    }
  }
  node {
    input: "953"
    output: "954"
    name: "Relu_155"
    op_type: "Relu"
  }
  node {
    input: "954"
    output: "955"
    name: "MaxPool_156"
    op_type: "MaxPool"
    attribute {
      name: "ceil_mode"
      i: 1
      type: INT
    }
    attribute {
      name: "kernel_shape"
      ints: 2
      ints: 2
      type: INTS
    }
    attribute {
      name: "pads"
      ints: 0
      ints: 0
      ints: 0
      ints: 0
      type: INTS
    }
    attribute {
      name: "strides"
      ints: 2
      ints: 2
      type: INTS
    }
  }
  node {
    input: "955"
    input: "stage2.rebnconv2.conv_s1.weight"
    input: "stage2.rebnconv2.conv_s1.bias"
    output: "956"
    name: "Conv_157"
    op_type: "Conv"
    attribute {
      name: "dilations"
      ints: 1
      ints: 1
      type: INTS
    }
    attribute {
      name: "group"
      i: 1
      type: INT
    }
    attribute {
      name: "kernel_shape"
      ints: 3
      ints: 3
      type: INTS
    }
    attribute {
      name: "pads"
      ints: 1
      ints: 1
      ints: 1
      ints: 1
      type: INTS
    }
    attribute {
      name: "strides"
      ints: 1
      ints: 1
      type: INTS
    }
  }
  node {
    input: "956"
    input: "stage2.rebnconv2.bn_s1.weight"
    input: "stage2.rebnconv2.bn_s1.bias"
    input: "stage2.rebnconv2.bn_s1.running_mean"
    input: "stage2.rebnconv2.bn_s1.running_var"
    output: "957"
    name: "BatchNormalization_158"
    op_type: "BatchNormalization"
    attribute {
      name: "epsilon"
      f: 9.999999747378752e-06
      type: FLOAT
    }
    attribute {
      name: "momentum"
      f: 0.8999999761581421
      type: FLOAT
    }
  }
  node {
    input: "957"
    output: "958"
    name: "Relu_159"
    op_type: "Relu"
  }
  node {
    input: "958"
    output: "959"
    name: "MaxPool_160"
    op_type: "MaxPool"
    attribute {
      name: "ceil_mode"
      i: 1
      type: INT
    }
    attribute {
      name: "kernel_shape"
      ints: 2
      ints: 2
      type: INTS
    }
    attribute {
      name: "pads"
      ints: 0
      ints: 0
      ints: 0
      ints: 0
      type: INTS
    }
    attribute {
      name: "strides"
      ints: 2
      ints: 2
      type: INTS
    }
  }
  node {
    input: "959"
    input: "stage2.rebnconv3.conv_s1.weight"
    input: "stage2.rebnconv3.conv_s1.bias"
    output: "960"
    name: "Conv_161"
    op_type: "Conv"
    attribute {
      name: "dilations"
      ints: 1
      ints: 1
      type: INTS
    }
    attribute {
      name: "group"
      i: 1
      type: INT
    }
    attribute {
      name: "kernel_shape"
      ints: 3
      ints: 3
      type: INTS
    }
    attribute {
      name: "pads"
      ints: 1
      ints: 1
      ints: 1
      ints: 1
      type: INTS
    }
    attribute {
      name: "strides"
      ints: 1
      ints: 1
      type: INTS
    }
  }
  node {
    input: "960"
    input: "stage2.rebnconv3.bn_s1.weight"
    input: "stage2.rebnconv3.bn_s1.bias"
    input: "stage2.rebnconv3.bn_s1.running_mean"
    input: "stage2.rebnconv3.bn_s1.running_var"
    output: "961"
    name: "BatchNormalization_162"
    op_type: "BatchNormalization"
    attribute {
      name: "epsilon"
      f: 9.999999747378752e-06
      type: FLOAT
    }
    attribute {
      name: "momentum"
      f: 0.8999999761581421
      type: FLOAT
    }
  }
  node {
    input: "961"
    output: "962"
    name: "Relu_163"
    op_type: "Relu"
  }
  node {
    input: "962"
    output: "963"
    name: "MaxPool_164"
    op_type: "MaxPool"
    attribute {
      name: "ceil_mode"
      i: 1
      type: INT
    }
    attribute {
      name: "kernel_shape"
      ints: 2
      ints: 2
      type: INTS
    }
    attribute {
      name: "pads"
      ints: 0
      ints: 0
      ints: 0
      ints: 0
      type: INTS
    }
    attribute {
      name: "strides"
      ints: 2
      ints: 2
      type: INTS
    }
  }
  node {
    input: "963"
    input: "stage2.rebnconv4.conv_s1.weight"
    input: "stage2.rebnconv4.conv_s1.bias"
    output: "964"
    name: "Conv_165"
    op_type: "Conv"
    attribute {
      name: "dilations"
      ints: 1
      ints: 1
      type: INTS
    }
    attribute {
      name: "group"
      i: 1
      type: INT
    }
    attribute {
      name: "kernel_shape"
      ints: 3
      ints: 3
      type: INTS
    }
    attribute {
      name: "pads"
      ints: 1
      ints: 1
      ints: 1
      ints: 1
      type: INTS
    }
    attribute {
      name: "strides"
      ints: 1
      ints: 1
      type: INTS
    }
  }
  node {
    input: "964"
    input: "stage2.rebnconv4.bn_s1.weight"
    input: "stage2.rebnconv4.bn_s1.bias"
    input: "stage2.rebnconv4.bn_s1.running_mean"
    input: "stage2.rebnconv4.bn_s1.running_var"
    output: "965"
    name: "BatchNormalization_166"
    op_type: "BatchNormalization"
    attribute {
      name: "epsilon"
      f: 9.999999747378752e-06
      type: FLOAT
    }
    attribute {
      name: "momentum"
      f: 0.8999999761581421
      type: FLOAT
    }
  }
  node {
    input: "965"
    output: "966"
    name: "Relu_167"
    op_type: "Relu"
  }
  node {
    input: "966"
    output: "967"
    name: "MaxPool_168"
    op_type: "MaxPool"
    attribute {
      name: "ceil_mode"
      i: 1
      type: INT
    }
    attribute {
      name: "kernel_shape"
      ints: 2
      ints: 2
      type: INTS
    }
    attribute {
      name: "pads"
      ints: 0
      ints: 0
      ints: 0
      ints: 0
      type: INTS
    }
    attribute {
      name: "strides"
      ints: 2
      ints: 2
      type: INTS
    }
  }
  node {
    input: "967"
    input: "stage2.rebnconv5.conv_s1.weight"
    input: "stage2.rebnconv5.conv_s1.bias"
    output: "968"
    name: "Conv_169"
    op_type: "Conv"
    attribute {
      name: "dilations"
      ints: 1
      ints: 1
      type: INTS
    }
    attribute {
      name: "group"
      i: 1
      type: INT
    }
    attribute {
      name: "kernel_shape"
      ints: 3
      ints: 3
      type: INTS
    }
    attribute {
      name: "pads"
      ints: 1
      ints: 1
      ints: 1
      ints: 1
      type: INTS
    }
    attribute {
      name: "strides"
      ints: 1
      ints: 1
      type: INTS
    }
  }
  node {
    input: "968"
    input: "stage2.rebnconv5.bn_s1.weight"
    input: "stage2.rebnconv5.bn_s1.bias"
    input: "stage2.rebnconv5.bn_s1.running_mean"
    input: "stage2.rebnconv5.bn_s1.running_var"
    output: "969"
    name: "BatchNormalization_170"
    op_type: "BatchNormalization"
    attribute {
      name: "epsilon"
      f: 9.999999747378752e-06
      type: FLOAT
    }
    attribute {
      name: "momentum"
      f: 0.8999999761581421
      type: FLOAT
    }
  }
  node {
    input: "969"
    output: "970"
    name: "Relu_171"
    op_type: "Relu"
  }
  node {
    input: "970"
    input: "stage2.rebnconv6.conv_s1.weight"
    input: "stage2.rebnconv6.conv_s1.bias"
    output: "971"
    name: "Conv_172"
    op_type: "Conv"
    attribute {
      name: "dilations"
      ints: 2
      ints: 2
      type: INTS
    }
    attribute {
      name: "group"
      i: 1
      type: INT
    }
    attribute {
      name: "kernel_shape"
      ints: 3
      ints: 3
      type: INTS
    }
    attribute {
      name: "pads"
      ints: 2
      ints: 2
      ints: 2
      ints: 2
      type: INTS
    }
    attribute {
      name: "strides"
      ints: 1
      ints: 1
      type: INTS
    }
  }
  node {
    input: "971"
    input: "stage2.rebnconv6.bn_s1.weight"
    input: "stage2.rebnconv6.bn_s1.bias"
    input: "stage2.rebnconv6.bn_s1.running_mean"
    input: "stage2.rebnconv6.bn_s1.running_var"
    output: "972"
    name: "BatchNormalization_173"
    op_type: "BatchNormalization"
    attribute {
      name: "epsilon"
      f: 9.999999747378752e-06
      type: FLOAT
    }
    attribute {
      name: "momentum"
      f: 0.8999999761581421
      type: FLOAT
    }
  }
  node {
    input: "972"
    output: "973"
    name: "Relu_174"
    op_type: "Relu"
  }
  node {
    input: "973"
    input: "970"
    output: "974"
    name: "Concat_175"
    op_type: "Concat"
    attribute {
      name: "axis"
      i: 1
      type: INT
    }
  }
  node {
    input: "974"
    input: "stage2.rebnconv5d.conv_s1.weight"
    input: "stage2.rebnconv5d.conv_s1.bias"
    output: "975"
    name: "Conv_176"
    op_type: "Conv"
    attribute {
      name: "dilations"
      ints: 1
      ints: 1
      type: INTS
    }
    attribute {
      name: "group"
      i: 1
      type: INT
    }
    attribute {
      name: "kernel_shape"
      ints: 3
      ints: 3
      type: INTS
    }
    attribute {
      name: "pads"
      ints: 1
      ints: 1
      ints: 1
      ints: 1
      type: INTS
    }
    attribute {
      name: "strides"
      ints: 1
      ints: 1
      type: INTS
    }
  }
  node {
    input: "975"
    input: "stage2.rebnconv5d.bn_s1.weight"
    input: "stage2.rebnconv5d.bn_s1.bias"
    input: "stage2.rebnconv5d.bn_s1.running_mean"
    input: "stage2.rebnconv5d.bn_s1.running_var"
    output: "976"
    name: "BatchNormalization_177"
    op_type: "BatchNormalization"
    attribute {
      name: "epsilon"
      f: 9.999999747378752e-06
      type: FLOAT
    }
    attribute {
      name: "momentum"
      f: 0.8999999761581421
      type: FLOAT
    }
  }
  node {
    input: "976"
    output: "977"
    name: "Relu_178"
    op_type: "Relu"
  }
  node {
    input: "966"
    output: "978"
    name: "Shape_179"
    op_type: "Shape"
  }
  node {
    output: "979"
    name: "Constant_180"
    op_type: "Constant"
    attribute {
      name: "value"
      t {
        data_type: 7
      }
      type: TENSOR
    }
  }
  node {
    input: "978"
    input: "979"
    output: "980"
    name: "Gather_181"
    op_type: "Gather"
    attribute {
      name: "axis"
      i: 0
      type: INT
    }
  }
  node {
    input: "966"
    output: "981"
    name: "Shape_182"
    op_type: "Shape"
  }
  node {
    output: "982"
    name: "Constant_183"
    op_type: "Constant"
    attribute {
      name: "value"
      t {
        data_type: 7
      }
      type: TENSOR
    }
  }
  node {
    input: "981"
    input: "982"
    output: "983"
    name: "Gather_184"
    op_type: "Gather"
    attribute {
      name: "axis"
      i: 0
      type: INT
    }
  }
  node {
    input: "980"
    output: "984"
    name: "Unsqueeze_185"
    op_type: "Unsqueeze"
    attribute {
      name: "axes"
      ints: 0
      type: INTS
    }
  }
  node {
    input: "983"
    output: "985"
    name: "Unsqueeze_186"
    op_type: "Unsqueeze"
    attribute {
      name: "axes"
      ints: 0
      type: INTS
    }
  }
  node {
    input: "984"
    input: "985"
    output: "986"
    name: "Concat_187"
    op_type: "Concat"
    attribute {
      name: "axis"
      i: 0
      type: INT
    }
  }
  node {
    output: "987"
    name: "Constant_188"
    op_type: "Constant"
    attribute {
      name: "value"
      t {
        dims: 0
        data_type: 1
      }
      type: TENSOR
    }
  }
  node {
    input: "977"
    output: "988"
    name: "Shape_189"
    op_type: "Shape"
  }
  node {
    output: "989"
    name: "Constant_190"
    op_type: "Constant"
    attribute {
      name: "value"
      t {
        dims: 1
        data_type: 7
      }
      type: TENSOR
    }
  }
  node {
    output: "990"
    name: "Constant_191"
    op_type: "Constant"
    attribute {
      name: "value"
      t {
        dims: 1
        data_type: 7
      }
      type: TENSOR
    }
  }
  node {
    output: "991"
    name: "Constant_192"
    op_type: "Constant"
    attribute {
      name: "value"
      t {
        dims: 1
        data_type: 7
      }
      type: TENSOR
    }
  }
  node {
    input: "988"
    input: "990"
    input: "991"
    input: "989"
    output: "992"
    name: "Slice_193"
    op_type: "Slice"
  }
  node {
    input: "986"
    output: "993"
    name: "Cast_194"
    op_type: "Cast"
    attribute {
      name: "to"
      i: 7
      type: INT
    }
  }
  node {
    input: "992"
    input: "993"
    output: "994"
    name: "Concat_195"
    op_type: "Concat"
    attribute {
      name: "axis"
      i: 0
      type: INT
    }
  }
  node {
    output: "995"
    name: "Constant_196"
    op_type: "Constant"
    attribute {
      name: "value"
      t {
        dims: 0
        data_type: 1
      }
      type: TENSOR
    }
  }
  node {
    input: "977"
    input: "987"
    input: "995"
    input: "994"
    output: "996"
    name: "Resize_197"
    op_type: "Resize"
    attribute {
      name: "coordinate_transformation_mode"
      s: "pytorch_half_pixel"
      type: STRING
    }
    attribute {
      name: "cubic_coeff_a"
      f: -0.75
      type: FLOAT
    }
    attribute {
      name: "mode"
      s: "linear"
      type: STRING
    }
    attribute {
      name: "nearest_mode"
      s: "floor"
      type: STRING
    }
  }
  node {
    input: "996"
    input: "966"
    output: "997"
    name: "Concat_198"
    op_type: "Concat"
    attribute {
      name: "axis"
      i: 1
      type: INT
    }
  }
  node {
    input: "997"
    input: "stage2.rebnconv4d.conv_s1.weight"
    input: "stage2.rebnconv4d.conv_s1.bias"
    output: "998"
    name: "Conv_199"
    op_type: "Conv"
    attribute {
      name: "dilations"
      ints: 1
      ints: 1
      type: INTS
    }
    attribute {
      name: "group"
      i: 1
      type: INT
    }
    attribute {
      name: "kernel_shape"
      ints: 3
      ints: 3
      type: INTS
    }
    attribute {
      name: "pads"
      ints: 1
      ints: 1
      ints: 1
      ints: 1
      type: INTS
    }
    attribute {
      name: "strides"
      ints: 1
      ints: 1
      type: INTS
    }
  }
  node {
    input: "998"
    input: "stage2.rebnconv4d.bn_s1.weight"
    input: "stage2.rebnconv4d.bn_s1.bias"
    input: "stage2.rebnconv4d.bn_s1.running_mean"
    input: "stage2.rebnconv4d.bn_s1.running_var"
    output: "999"
    name: "BatchNormalization_200"
    op_type: "BatchNormalization"
    attribute {
      name: "epsilon"
      f: 9.999999747378752e-06
      type: FLOAT
    }
    attribute {
      name: "momentum"
      f: 0.8999999761581421
      type: FLOAT
    }
  }
  node {
    input: "999"
    output: "1000"
    name: "Relu_201"
    op_type: "Relu"
  }
  node {
    input: "962"
    output: "1001"
    name: "Shape_202"
    op_type: "Shape"
  }
  node {
    output: "1002"
    name: "Constant_203"
    op_type: "Constant"
    attribute {
      name: "value"
      t {
        data_type: 7
      }
      type: TENSOR
    }
  }
  node {
    input: "1001"
    input: "1002"
    output: "1003"
    name: "Gather_204"
    op_type: "Gather"
    attribute {
      name: "axis"
      i: 0
      type: INT
    }
  }
  node {
    input: "962"
    output: "1004"
    name: "Shape_205"
    op_type: "Shape"
  }
  node {
    output: "1005"
    name: "Constant_206"
    op_type: "Constant"
    attribute {
      name: "value"
      t {
        data_type: 7
      }
      type: TENSOR
    }
  }
  node {
    input: "1004"
    input: "1005"
    output: "1006"
    name: "Gather_207"
    op_type: "Gather"
    attribute {
      name: "axis"
      i: 0
      type: INT
    }
  }
  node {
    input: "1003"
    output: "1007"
    name: "Unsqueeze_208"
    op_type: "Unsqueeze"
    attribute {
      name: "axes"
      ints: 0
      type: INTS
    }
  }
  node {
    input: "1006"
    output: "1008"
    name: "Unsqueeze_209"
    op_type: "Unsqueeze"
    attribute {
      name: "axes"
      ints: 0
      type: INTS
    }
  }
  node {
    input: "1007"
    input: "1008"
    output: "1009"
    name: "Concat_210"
    op_type: "Concat"
    attribute {
      name: "axis"
      i: 0
      type: INT
    }
  }
  node {
    output: "1010"
    name: "Constant_211"
    op_type: "Constant"
    attribute {
      name: "value"
      t {
        dims: 0
        data_type: 1
      }
      type: TENSOR
    }
  }
  node {
    input: "1000"
    output: "1011"
    name: "Shape_212"
    op_type: "Shape"
  }
  node {
    output: "1012"
    name: "Constant_213"
    op_type: "Constant"
    attribute {
      name: "value"
      t {
        dims: 1
        data_type: 7
      }
      type: TENSOR
    }
  }
  node {
    output: "1013"
    name: "Constant_214"
    op_type: "Constant"
    attribute {
      name: "value"
      t {
        dims: 1
        data_type: 7
      }
      type: TENSOR
    }
  }
  node {
    output: "1014"
    name: "Constant_215"
    op_type: "Constant"
    attribute {
      name: "value"
      t {
        dims: 1
        data_type: 7
      }
      type: TENSOR
    }
  }
  node {
    input: "1011"
    input: "1013"
    input: "1014"
    input: "1012"
    output: "1015"
    name: "Slice_216"
    op_type: "Slice"
  }
  node {
    input: "1009"
    output: "1016"
    name: "Cast_217"
    op_type: "Cast"
    attribute {
      name: "to"
      i: 7
      type: INT
    }
  }
  node {
    input: "1015"
    input: "1016"
    output: "1017"
    name: "Concat_218"
    op_type: "Concat"
    attribute {
      name: "axis"
      i: 0
      type: INT
    }
  }
  node {
    output: "1018"
    name: "Constant_219"
    op_type: "Constant"
    attribute {
      name: "value"
      t {
        dims: 0
        data_type: 1
      }
      type: TENSOR
    }
  }
  node {
    input: "1000"
    input: "1010"
    input: "1018"
    input: "1017"
    output: "1019"
    name: "Resize_220"
    op_type: "Resize"
    attribute {
      name: "coordinate_transformation_mode"
      s: "pytorch_half_pixel"
      type: STRING
    }
    attribute {
      name: "cubic_coeff_a"
      f: -0.75
      type: FLOAT
    }
    attribute {
      name: "mode"
      s: "linear"
      type: STRING
    }
    attribute {
      name: "nearest_mode"
      s: "floor"
      type: STRING
    }
  }
  node {
    input: "1019"
    input: "962"
    output: "1020"
    name: "Concat_221"
    op_type: "Concat"
    attribute {
      name: "axis"
      i: 1
      type: INT
    }
  }
  node {
    input: "1020"
    input: "stage2.rebnconv3d.conv_s1.weight"
    input: "stage2.rebnconv3d.conv_s1.bias"
    output: "1021"
    name: "Conv_222"
    op_type: "Conv"
    attribute {
      name: "dilations"
      ints: 1
      ints: 1
      type: INTS
    }
    attribute {
      name: "group"
      i: 1
      type: INT
    }
    attribute {
      name: "kernel_shape"
      ints: 3
      ints: 3
      type: INTS
    }
    attribute {
      name: "pads"
      ints: 1
      ints: 1
      ints: 1
      ints: 1
      type: INTS
    }
    attribute {
      name: "strides"
      ints: 1
      ints: 1
      type: INTS
    }
  }
  node {
    input: "1021"
    input: "stage2.rebnconv3d.bn_s1.weight"
    input: "stage2.rebnconv3d.bn_s1.bias"
    input: "stage2.rebnconv3d.bn_s1.running_mean"
    input: "stage2.rebnconv3d.bn_s1.running_var"
    output: "1022"
    name: "BatchNormalization_223"
    op_type: "BatchNormalization"
    attribute {
      name: "epsilon"
      f: 9.999999747378752e-06
      type: FLOAT
    }
    attribute {
      name: "momentum"
      f: 0.8999999761581421
      type: FLOAT
    }
  }
  node {
    input: "1022"
    output: "1023"
    name: "Relu_224"
    op_type: "Relu"
  }
  node {
    input: "958"
    output: "1024"
    name: "Shape_225"
    op_type: "Shape"
  }
  node {
    output: "1025"
    name: "Constant_226"
    op_type: "Constant"
    attribute {
      name: "value"
      t {
        data_type: 7
      }
      type: TENSOR
    }
  }
  node {
    input: "1024"
    input: "1025"
    output: "1026"
    name: "Gather_227"
    op_type: "Gather"
    attribute {
      name: "axis"
      i: 0
      type: INT
    }
  }
  node {
    input: "958"
    output: "1027"
    name: "Shape_228"
    op_type: "Shape"
  }
  node {
    output: "1028"
    name: "Constant_229"
    op_type: "Constant"
    attribute {
      name: "value"
      t {
        data_type: 7
      }
      type: TENSOR
    }
  }
  node {
    input: "1027"
    input: "1028"
    output: "1029"
    name: "Gather_230"
    op_type: "Gather"
    attribute {
      name: "axis"
      i: 0
      type: INT
    }
  }
  node {
    input: "1026"
    output: "1030"
    name: "Unsqueeze_231"
    op_type: "Unsqueeze"
    attribute {
      name: "axes"
      ints: 0
      type: INTS
    }
  }
  node {
    input: "1029"
    output: "1031"
    name: "Unsqueeze_232"
    op_type: "Unsqueeze"
    attribute {
      name: "axes"
      ints: 0
      type: INTS
    }
  }
  node {
    input: "1030"
    input: "1031"
    output: "1032"
    name: "Concat_233"
    op_type: "Concat"
    attribute {
      name: "axis"
      i: 0
      type: INT
    }
  }
  node {
    output: "1033"
    name: "Constant_234"
    op_type: "Constant"
    attribute {
      name: "value"
      t {
        dims: 0
        data_type: 1
      }
      type: TENSOR
    }
  }
  node {
    input: "1023"
    output: "1034"
    name: "Shape_235"
    op_type: "Shape"
  }
  node {
    output: "1035"
    name: "Constant_236"
    op_type: "Constant"
    attribute {
      name: "value"
      t {
        dims: 1
        data_type: 7
      }
      type: TENSOR
    }
  }
  node {
    output: "1036"
    name: "Constant_237"
    op_type: "Constant"
    attribute {
      name: "value"
      t {
        dims: 1
        data_type: 7
      }
      type: TENSOR
    }
  }
  node {
    output: "1037"
    name: "Constant_238"
    op_type: "Constant"
    attribute {
      name: "value"
      t {
        dims: 1
        data_type: 7
      }
      type: TENSOR
    }
  }
  node {
    input: "1034"
    input: "1036"
    input: "1037"
    input: "1035"
    output: "1038"
    name: "Slice_239"
    op_type: "Slice"
  }
  node {
    input: "1032"
    output: "1039"
    name: "Cast_240"
    op_type: "Cast"
    attribute {
      name: "to"
      i: 7
      type: INT
    }
  }
  node {
    input: "1038"
    input: "1039"
    output: "1040"
    name: "Concat_241"
    op_type: "Concat"
    attribute {
      name: "axis"
      i: 0
      type: INT
    }
  }
  node {
    output: "1041"
    name: "Constant_242"
    op_type: "Constant"
    attribute {
      name: "value"
      t {
        dims: 0
        data_type: 1
      }
      type: TENSOR
    }
  }
  node {
    input: "1023"
    input: "1033"
    input: "1041"
    input: "1040"
    output: "1042"
    name: "Resize_243"
    op_type: "Resize"
    attribute {
      name: "coordinate_transformation_mode"
      s: "pytorch_half_pixel"
      type: STRING
    }
    attribute {
      name: "cubic_coeff_a"
      f: -0.75
      type: FLOAT
    }
    attribute {
      name: "mode"
      s: "linear"
      type: STRING
    }
    attribute {
      name: "nearest_mode"
      s: "floor"
      type: STRING
    }
  }
  node {
    input: "1042"
    input: "958"
    output: "1043"
    name: "Concat_244"
    op_type: "Concat"
    attribute {
      name: "axis"
      i: 1
      type: INT
    }
  }
  node {
    input: "1043"
    input: "stage2.rebnconv2d.conv_s1.weight"
    input: "stage2.rebnconv2d.conv_s1.bias"
    output: "1044"
    name: "Conv_245"
    op_type: "Conv"
    attribute {
      name: "dilations"
      ints: 1
      ints: 1
      type: INTS
    }
    attribute {
      name: "group"
      i: 1
      type: INT
    }
    attribute {
      name: "kernel_shape"
      ints: 3
      ints: 3
      type: INTS
    }
    attribute {
      name: "pads"
      ints: 1
      ints: 1
      ints: 1
      ints: 1
      type: INTS
    }
    attribute {
      name: "strides"
      ints: 1
      ints: 1
      type: INTS
    }
  }
  node {
    input: "1044"
    input: "stage2.rebnconv2d.bn_s1.weight"
    input: "stage2.rebnconv2d.bn_s1.bias"
    input: "stage2.rebnconv2d.bn_s1.running_mean"
    input: "stage2.rebnconv2d.bn_s1.running_var"
    output: "1045"
    name: "BatchNormalization_246"
    op_type: "BatchNormalization"
    attribute {
      name: "epsilon"
      f: 9.999999747378752e-06
      type: FLOAT
    }
    attribute {
      name: "momentum"
      f: 0.8999999761581421
      type: FLOAT
    }
  }
  node {
    input: "1045"
    output: "1046"
    name: "Relu_247"
    op_type: "Relu"
  }
  node {
    input: "954"
    output: "1047"
    name: "Shape_248"
    op_type: "Shape"
  }
  node {
    output: "1048"
    name: "Constant_249"
    op_type: "Constant"
    attribute {
      name: "value"
      t {
        data_type: 7
      }
      type: TENSOR
    }
  }
  node {
    input: "1047"
    input: "1048"
    output: "1049"
    name: "Gather_250"
    op_type: "Gather"
    attribute {
      name: "axis"
      i: 0
      type: INT
    }
  }
  node {
    input: "954"
    output: "1050"
    name: "Shape_251"
    op_type: "Shape"
  }
  node {
    output: "1051"
    name: "Constant_252"
    op_type: "Constant"
    attribute {
      name: "value"
      t {
        data_type: 7
      }
      type: TENSOR
    }
  }
  node {
    input: "1050"
    input: "1051"
    output: "1052"
    name: "Gather_253"
    op_type: "Gather"
    attribute {
      name: "axis"
      i: 0
      type: INT
    }
  }
  node {
    input: "1049"
    output: "1053"
    name: "Unsqueeze_254"
    op_type: "Unsqueeze"
    attribute {
      name: "axes"
      ints: 0
      type: INTS
    }
  }
  node {
    input: "1052"
    output: "1054"
    name: "Unsqueeze_255"
    op_type: "Unsqueeze"
    attribute {
      name: "axes"
      ints: 0
      type: INTS
    }
  }
  node {
    input: "1053"
    input: "1054"
    output: "1055"
    name: "Concat_256"
    op_type: "Concat"
    attribute {
      name: "axis"
      i: 0
      type: INT
    }
  }
  node {
    output: "1056"
    name: "Constant_257"
    op_type: "Constant"
    attribute {
      name: "value"
      t {
        dims: 0
        data_type: 1
      }
      type: TENSOR
    }
  }
  node {
    input: "1046"
    output: "1057"
    name: "Shape_258"
    op_type: "Shape"
  }
  node {
    output: "1058"
    name: "Constant_259"
    op_type: "Constant"
    attribute {
      name: "value"
      t {
        dims: 1
        data_type: 7
      }
      type: TENSOR
    }
  }
  node {
    output: "1059"
    name: "Constant_260"
    op_type: "Constant"
    attribute {
      name: "value"
      t {
        dims: 1
        data_type: 7
      }
      type: TENSOR
    }
  }
  node {
    output: "1060"
    name: "Constant_261"
    op_type: "Constant"
    attribute {
      name: "value"
      t {
        dims: 1
        data_type: 7
      }
      type: TENSOR
    }
  }
  node {
    input: "1057"
    input: "1059"
    input: "1060"
    input: "1058"
    output: "1061"
    name: "Slice_262"
    op_type: "Slice"
  }
  node {
    input: "1055"
    output: "1062"
    name: "Cast_263"
    op_type: "Cast"
    attribute {
      name: "to"
      i: 7
      type: INT
    }
  }
  node {
    input: "1061"
    input: "1062"
    output: "1063"
    name: "Concat_264"
    op_type: "Concat"
    attribute {
      name: "axis"
      i: 0
      type: INT
    }
  }
  node {
    output: "1064"
    name: "Constant_265"
    op_type: "Constant"
    attribute {
      name: "value"
      t {
        dims: 0
        data_type: 1
      }
      type: TENSOR
    }
  }
  node {
    input: "1046"
    input: "1056"
    input: "1064"
    input: "1063"
    output: "1065"
    name: "Resize_266"
    op_type: "Resize"
    attribute {
      name: "coordinate_transformation_mode"
      s: "pytorch_half_pixel"
      type: STRING
    }
    attribute {
      name: "cubic_coeff_a"
      f: -0.75
      type: FLOAT
    }
    attribute {
      name: "mode"
      s: "linear"
      type: STRING
    }
    attribute {
      name: "nearest_mode"
      s: "floor"
      type: STRING
    }
  }
  node {
    input: "1065"
    input: "954"
    output: "1066"
    name: "Concat_267"
    op_type: "Concat"
    attribute {
      name: "axis"
      i: 1
      type: INT
    }
  }
  node {
    input: "1066"
    input: "stage2.rebnconv1d.conv_s1.weight"
    input: "stage2.rebnconv1d.conv_s1.bias"
    output: "1067"
    name: "Conv_268"
    op_type: "Conv"
    attribute {
      name: "dilations"
      ints: 1
      ints: 1
      type: INTS
    }
    attribute {
      name: "group"
      i: 1
      type: INT
    }
    attribute {
      name: "kernel_shape"
      ints: 3
      ints: 3
      type: INTS
    }
    attribute {
      name: "pads"
      ints: 1
      ints: 1
      ints: 1
      ints: 1
      type: INTS
    }
    attribute {
      name: "strides"
      ints: 1
      ints: 1
      type: INTS
    }
  }
  node {
    input: "1067"
    input: "stage2.rebnconv1d.bn_s1.weight"
    input: "stage2.rebnconv1d.bn_s1.bias"
    input: "stage2.rebnconv1d.bn_s1.running_mean"
    input: "stage2.rebnconv1d.bn_s1.running_var"
    output: "1068"
    name: "BatchNormalization_269"
    op_type: "BatchNormalization"
    attribute {
      name: "epsilon"
      f: 9.999999747378752e-06
      type: FLOAT
    }
    attribute {
      name: "momentum"
      f: 0.8999999761581421
      type: FLOAT
    }
  }
  node {
    input: "1068"
    output: "1069"
    name: "Relu_270"
    op_type: "Relu"
  }
  node {
    input: "1069"
    input: "951"
    output: "1070"
    name: "Add_271"
    op_type: "Add"
  }
  node {
    input: "1070"
    output: "1071"
    name: "MaxPool_272"
    op_type: "MaxPool"
    attribute {
      name: "ceil_mode"
      i: 1
      type: INT
    }
    attribute {
      name: "kernel_shape"
      ints: 2
      ints: 2
      type: INTS
    }
    attribute {
      name: "pads"
      ints: 0
      ints: 0
      ints: 0
      ints: 0
      type: INTS
    }
    attribute {
      name: "strides"
      ints: 2
      ints: 2
      type: INTS
    }
  }
  node {
    input: "1071"
    input: "stage3.rebnconvin.conv_s1.weight"
    input: "stage3.rebnconvin.conv_s1.bias"
    output: "1072"
    name: "Conv_273"
    op_type: "Conv"
    attribute {
      name: "dilations"
      ints: 1
      ints: 1
      type: INTS
    }
    attribute {
      name: "group"
      i: 1
      type: INT
    }
    attribute {
      name: "kernel_shape"
      ints: 3
      ints: 3
      type: INTS
    }
    attribute {
      name: "pads"
      ints: 1
      ints: 1
      ints: 1
      ints: 1
      type: INTS
    }
    attribute {
      name: "strides"
      ints: 1
      ints: 1
      type: INTS
    }
  }
  node {
    input: "1072"
    input: "stage3.rebnconvin.bn_s1.weight"
    input: "stage3.rebnconvin.bn_s1.bias"
    input: "stage3.rebnconvin.bn_s1.running_mean"
    input: "stage3.rebnconvin.bn_s1.running_var"
    output: "1073"
    name: "BatchNormalization_274"
    op_type: "BatchNormalization"
    attribute {
      name: "epsilon"
      f: 9.999999747378752e-06
      type: FLOAT
    }
    attribute {
      name: "momentum"
      f: 0.8999999761581421
      type: FLOAT
    }
  }
  node {
    input: "1073"
    output: "1074"
    name: "Relu_275"
    op_type: "Relu"
  }
  node {
    input: "1074"
    input: "stage3.rebnconv1.conv_s1.weight"
    input: "stage3.rebnconv1.conv_s1.bias"
    output: "1075"
    name: "Conv_276"
    op_type: "Conv"
    attribute {
      name: "dilations"
      ints: 1
      ints: 1
      type: INTS
    }
    attribute {
      name: "group"
      i: 1
      type: INT
    }
    attribute {
      name: "kernel_shape"
      ints: 3
      ints: 3
      type: INTS
    }
    attribute {
      name: "pads"
      ints: 1
      ints: 1
      ints: 1
      ints: 1
      type: INTS
    }
    attribute {
      name: "strides"
      ints: 1
      ints: 1
      type: INTS
    }
  }
  node {
    input: "1075"
    input: "stage3.rebnconv1.bn_s1.weight"
    input: "stage3.rebnconv1.bn_s1.bias"
    input: "stage3.rebnconv1.bn_s1.running_mean"
    input: "stage3.rebnconv1.bn_s1.running_var"
    output: "1076"
    name: "BatchNormalization_277"
    op_type: "BatchNormalization"
    attribute {
      name: "epsilon"
      f: 9.999999747378752e-06
      type: FLOAT
    }
    attribute {
      name: "momentum"
      f: 0.8999999761581421
      type: FLOAT
    }
  }
  node {
    input: "1076"
    output: "1077"
    name: "Relu_278"
    op_type: "Relu"
  }
  node {
    input: "1077"
    output: "1078"
    name: "MaxPool_279"
    op_type: "MaxPool"
    attribute {
      name: "ceil_mode"
      i: 1
      type: INT
    }
    attribute {
      name: "kernel_shape"
      ints: 2
      ints: 2
      type: INTS
    }
    attribute {
      name: "pads"
      ints: 0
      ints: 0
      ints: 0
      ints: 0
      type: INTS
    }
    attribute {
      name: "strides"
      ints: 2
      ints: 2
      type: INTS
    }
  }
  node {
    input: "1078"
    input: "stage3.rebnconv2.conv_s1.weight"
    input: "stage3.rebnconv2.conv_s1.bias"
    output: "1079"
    name: "Conv_280"
    op_type: "Conv"
    attribute {
      name: "dilations"
      ints: 1
      ints: 1
      type: INTS
    }
    attribute {
      name: "group"
      i: 1
      type: INT
    }
    attribute {
      name: "kernel_shape"
      ints: 3
      ints: 3
      type: INTS
    }
    attribute {
      name: "pads"
      ints: 1
      ints: 1
      ints: 1
      ints: 1
      type: INTS
    }
    attribute {
      name: "strides"
      ints: 1
      ints: 1
      type: INTS
    }
  }
  node {
    input: "1079"
    input: "stage3.rebnconv2.bn_s1.weight"
    input: "stage3.rebnconv2.bn_s1.bias"
    input: "stage3.rebnconv2.bn_s1.running_mean"
    input: "stage3.rebnconv2.bn_s1.running_var"
    output: "1080"
    name: "BatchNormalization_281"
    op_type: "BatchNormalization"
    attribute {
      name: "epsilon"
      f: 9.999999747378752e-06
      type: FLOAT
    }
    attribute {
      name: "momentum"
      f: 0.8999999761581421
      type: FLOAT
    }
  }
  node {
    input: "1080"
    output: "1081"
    name: "Relu_282"
    op_type: "Relu"
  }
  node {
    input: "1081"
    output: "1082"
    name: "MaxPool_283"
    op_type: "MaxPool"
    attribute {
      name: "ceil_mode"
      i: 1
      type: INT
    }
    attribute {
      name: "kernel_shape"
      ints: 2
      ints: 2
      type: INTS
    }
    attribute {
      name: "pads"
      ints: 0
      ints: 0
      ints: 0
      ints: 0
      type: INTS
    }
    attribute {
      name: "strides"
      ints: 2
      ints: 2
      type: INTS
    }
  }
  node {
    input: "1082"
    input: "stage3.rebnconv3.conv_s1.weight"
    input: "stage3.rebnconv3.conv_s1.bias"
    output: "1083"
    name: "Conv_284"
    op_type: "Conv"
    attribute {
      name: "dilations"
      ints: 1
      ints: 1
      type: INTS
    }
    attribute {
      name: "group"
      i: 1
      type: INT
    }
    attribute {
      name: "kernel_shape"
      ints: 3
      ints: 3
      type: INTS
    }
    attribute {
      name: "pads"
      ints: 1
      ints: 1
      ints: 1
      ints: 1
      type: INTS
    }
    attribute {
      name: "strides"
      ints: 1
      ints: 1
      type: INTS
    }
  }
  node {
    input: "1083"
    input: "stage3.rebnconv3.bn_s1.weight"
    input: "stage3.rebnconv3.bn_s1.bias"
    input: "stage3.rebnconv3.bn_s1.running_mean"
    input: "stage3.rebnconv3.bn_s1.running_var"
    output: "1084"
    name: "BatchNormalization_285"
    op_type: "BatchNormalization"
    attribute {
      name: "epsilon"
      f: 9.999999747378752e-06
      type: FLOAT
    }
    attribute {
      name: "momentum"
      f: 0.8999999761581421
      type: FLOAT
    }
  }
  node {
    input: "1084"
    output: "1085"
    name: "Relu_286"
    op_type: "Relu"
  }
  node {
    input: "1085"
    output: "1086"
    name: "MaxPool_287"
    op_type: "MaxPool"
    attribute {
      name: "ceil_mode"
      i: 1
      type: INT
    }
    attribute {
      name: "kernel_shape"
      ints: 2
      ints: 2
      type: INTS
    }
    attribute {
      name: "pads"
      ints: 0
      ints: 0
      ints: 0
      ints: 0
      type: INTS
    }
    attribute {
      name: "strides"
      ints: 2
      ints: 2
      type: INTS
    }
  }
  node {
    input: "1086"
    input: "stage3.rebnconv4.conv_s1.weight"
    input: "stage3.rebnconv4.conv_s1.bias"
    output: "1087"
    name: "Conv_288"
    op_type: "Conv"
    attribute {
      name: "dilations"
      ints: 1
      ints: 1
      type: INTS
    }
    attribute {
      name: "group"
      i: 1
      type: INT
    }
    attribute {
      name: "kernel_shape"
      ints: 3
      ints: 3
      type: INTS
    }
    attribute {
      name: "pads"
      ints: 1
      ints: 1
      ints: 1
      ints: 1
      type: INTS
    }
    attribute {
      name: "strides"
      ints: 1
      ints: 1
      type: INTS
    }
  }
  node {
    input: "1087"
    input: "stage3.rebnconv4.bn_s1.weight"
    input: "stage3.rebnconv4.bn_s1.bias"
    input: "stage3.rebnconv4.bn_s1.running_mean"
    input: "stage3.rebnconv4.bn_s1.running_var"
    output: "1088"
    name: "BatchNormalization_289"
    op_type: "BatchNormalization"
    attribute {
      name: "epsilon"
      f: 9.999999747378752e-06
      type: FLOAT
    }
    attribute {
      name: "momentum"
      f: 0.8999999761581421
      type: FLOAT
    }
  }
  node {
    input: "1088"
    output: "1089"
    name: "Relu_290"
    op_type: "Relu"
  }
  node {
    input: "1089"
    input: "stage3.rebnconv5.conv_s1.weight"
    input: "stage3.rebnconv5.conv_s1.bias"
    output: "1090"
    name: "Conv_291"
    op_type: "Conv"
    attribute {
      name: "dilations"
      ints: 2
      ints: 2
      type: INTS
    }
    attribute {
      name: "group"
      i: 1
      type: INT
    }
    attribute {
      name: "kernel_shape"
      ints: 3
      ints: 3
      type: INTS
    }
    attribute {
      name: "pads"
      ints: 2
      ints: 2
      ints: 2
      ints: 2
      type: INTS
    }
    attribute {
      name: "strides"
      ints: 1
      ints: 1
      type: INTS
    }
  }
  node {
    input: "1090"
    input: "stage3.rebnconv5.bn_s1.weight"
    input: "stage3.rebnconv5.bn_s1.bias"
    input: "stage3.rebnconv5.bn_s1.running_mean"
    input: "stage3.rebnconv5.bn_s1.running_var"
    output: "1091"
    name: "BatchNormalization_292"
    op_type: "BatchNormalization"
    attribute {
      name: "epsilon"
      f: 9.999999747378752e-06
      type: FLOAT
    }
    attribute {
      name: "momentum"
      f: 0.8999999761581421
      type: FLOAT
    }
  }
  node {
    input: "1091"
    output: "1092"
    name: "Relu_293"
    op_type: "Relu"
  }
  node {
    input: "1092"
    input: "1089"
    output: "1093"
    name: "Concat_294"
    op_type: "Concat"
    attribute {
      name: "axis"
      i: 1
      type: INT
    }
  }
  node {
    input: "1093"
    input: "stage3.rebnconv4d.conv_s1.weight"
    input: "stage3.rebnconv4d.conv_s1.bias"
    output: "1094"
    name: "Conv_295"
    op_type: "Conv"
    attribute {
      name: "dilations"
      ints: 1
      ints: 1
      type: INTS
    }
    attribute {
      name: "group"
      i: 1
      type: INT
    }
    attribute {
      name: "kernel_shape"
      ints: 3
      ints: 3
      type: INTS
    }
    attribute {
      name: "pads"
      ints: 1
      ints: 1
      ints: 1
      ints: 1
      type: INTS
    }
    attribute {
      name: "strides"
      ints: 1
      ints: 1
      type: INTS
    }
  }
  node {
    input: "1094"
    input: "stage3.rebnconv4d.bn_s1.weight"
    input: "stage3.rebnconv4d.bn_s1.bias"
    input: "stage3.rebnconv4d.bn_s1.running_mean"
    input: "stage3.rebnconv4d.bn_s1.running_var"
    output: "1095"
    name: "BatchNormalization_296"
    op_type: "BatchNormalization"
    attribute {
      name: "epsilon"
      f: 9.999999747378752e-06
      type: FLOAT
    }
    attribute {
      name: "momentum"
      f: 0.8999999761581421
      type: FLOAT
    }
  }
  node {
    input: "1095"
    output: "1096"
    name: "Relu_297"
    op_type: "Relu"
  }
  node {
    input: "1085"
    output: "1097"
    name: "Shape_298"
    op_type: "Shape"
  }
  node {
    output: "1098"
    name: "Constant_299"
    op_type: "Constant"
    attribute {
      name: "value"
      t {
        data_type: 7
      }
      type: TENSOR
    }
  }
  node {
    input: "1097"
    input: "1098"
    output: "1099"
    name: "Gather_300"
    op_type: "Gather"
    attribute {
      name: "axis"
      i: 0
      type: INT
    }
  }
  node {
    input: "1085"
    output: "1100"
    name: "Shape_301"
    op_type: "Shape"
  }
  node {
    output: "1101"
    name: "Constant_302"
    op_type: "Constant"
    attribute {
      name: "value"
      t {
        data_type: 7
      }
      type: TENSOR
    }
  }
  node {
    input: "1100"
    input: "1101"
    output: "1102"
    name: "Gather_303"
    op_type: "Gather"
    attribute {
      name: "axis"
      i: 0
      type: INT
    }
  }
  node {
    input: "1099"
    output: "1103"
    name: "Unsqueeze_304"
    op_type: "Unsqueeze"
    attribute {
      name: "axes"
      ints: 0
      type: INTS
    }
  }
  node {
    input: "1102"
    output: "1104"
    name: "Unsqueeze_305"
    op_type: "Unsqueeze"
    attribute {
      name: "axes"
      ints: 0
      type: INTS
    }
  }
  node {
    input: "1103"
    input: "1104"
    output: "1105"
    name: "Concat_306"
    op_type: "Concat"
    attribute {
      name: "axis"
      i: 0
      type: INT
    }
  }
  node {
    output: "1106"
    name: "Constant_307"
    op_type: "Constant"
    attribute {
      name: "value"
      t {
        dims: 0
        data_type: 1
      }
      type: TENSOR
    }
  }
  node {
    input: "1096"
    output: "1107"
    name: "Shape_308"
    op_type: "Shape"
  }
  node {
    output: "1108"
    name: "Constant_309"
    op_type: "Constant"
    attribute {
      name: "value"
      t {
        dims: 1
        data_type: 7
      }
      type: TENSOR
    }
  }
  node {
    output: "1109"
    name: "Constant_310"
    op_type: "Constant"
    attribute {
      name: "value"
      t {
        dims: 1
        data_type: 7
      }
      type: TENSOR
    }
  }
  node {
    output: "1110"
    name: "Constant_311"
    op_type: "Constant"
    attribute {
      name: "value"
      t {
        dims: 1
        data_type: 7
      }
      type: TENSOR
    }
  }
  node {
    input: "1107"
    input: "1109"
    input: "1110"
    input: "1108"
    output: "1111"
    name: "Slice_312"
    op_type: "Slice"
  }
  node {
    input: "1105"
    output: "1112"
    name: "Cast_313"
    op_type: "Cast"
    attribute {
      name: "to"
      i: 7
      type: INT
    }
  }
  node {
    input: "1111"
    input: "1112"
    output: "1113"
    name: "Concat_314"
    op_type: "Concat"
    attribute {
      name: "axis"
      i: 0
      type: INT
    }
  }
  node {
    output: "1114"
    name: "Constant_315"
    op_type: "Constant"
    attribute {
      name: "value"
      t {
        dims: 0
        data_type: 1
      }
      type: TENSOR
    }
  }
  node {
    input: "1096"
    input: "1106"
    input: "1114"
    input: "1113"
    output: "1115"
    name: "Resize_316"
    op_type: "Resize"
    attribute {
      name: "coordinate_transformation_mode"
      s: "pytorch_half_pixel"
      type: STRING
    }
    attribute {
      name: "cubic_coeff_a"
      f: -0.75
      type: FLOAT
    }
    attribute {
      name: "mode"
      s: "linear"
      type: STRING
    }
    attribute {
      name: "nearest_mode"
      s: "floor"
      type: STRING
    }
  }
  node {
    input: "1115"
    input: "1085"
    output: "1116"
    name: "Concat_317"
    op_type: "Concat"
    attribute {
      name: "axis"
      i: 1
      type: INT
    }
  }
  node {
    input: "1116"
    input: "stage3.rebnconv3d.conv_s1.weight"
    input: "stage3.rebnconv3d.conv_s1.bias"
    output: "1117"
    name: "Conv_318"
    op_type: "Conv"
    attribute {
      name: "dilations"
      ints: 1
      ints: 1
      type: INTS
    }
    attribute {
      name: "group"
      i: 1
      type: INT
    }
    attribute {
      name: "kernel_shape"
      ints: 3
      ints: 3
      type: INTS
    }
    attribute {
      name: "pads"
      ints: 1
      ints: 1
      ints: 1
      ints: 1
      type: INTS
    }
    attribute {
      name: "strides"
      ints: 1
      ints: 1
      type: INTS
    }
  }
  node {
    input: "1117"
    input: "stage3.rebnconv3d.bn_s1.weight"
    input: "stage3.rebnconv3d.bn_s1.bias"
    input: "stage3.rebnconv3d.bn_s1.running_mean"
    input: "stage3.rebnconv3d.bn_s1.running_var"
    output: "1118"
    name: "BatchNormalization_319"
    op_type: "BatchNormalization"
    attribute {
      name: "epsilon"
      f: 9.999999747378752e-06
      type: FLOAT
    }
    attribute {
      name: "momentum"
      f: 0.8999999761581421
      type: FLOAT
    }
  }
  node {
    input: "1118"
    output: "1119"
    name: "Relu_320"
    op_type: "Relu"
  }
  node {
    input: "1081"
    output: "1120"
    name: "Shape_321"
    op_type: "Shape"
  }
  node {
    output: "1121"
    name: "Constant_322"
    op_type: "Constant"
    attribute {
      name: "value"
      t {
        data_type: 7
      }
      type: TENSOR
    }
  }
  node {
    input: "1120"
    input: "1121"
    output: "1122"
    name: "Gather_323"
    op_type: "Gather"
    attribute {
      name: "axis"
      i: 0
      type: INT
    }
  }
  node {
    input: "1081"
    output: "1123"
    name: "Shape_324"
    op_type: "Shape"
  }
  node {
    output: "1124"
    name: "Constant_325"
    op_type: "Constant"
    attribute {
      name: "value"
      t {
        data_type: 7
      }
      type: TENSOR
    }
  }
  node {
    input: "1123"
    input: "1124"
    output: "1125"
    name: "Gather_326"
    op_type: "Gather"
    attribute {
      name: "axis"
      i: 0
      type: INT
    }
  }
  node {
    input: "1122"
    output: "1126"
    name: "Unsqueeze_327"
    op_type: "Unsqueeze"
    attribute {
      name: "axes"
      ints: 0
      type: INTS
    }
  }
  node {
    input: "1125"
    output: "1127"
    name: "Unsqueeze_328"
    op_type: "Unsqueeze"
    attribute {
      name: "axes"
      ints: 0
      type: INTS
    }
  }
  node {
    input: "1126"
    input: "1127"
    output: "1128"
    name: "Concat_329"
    op_type: "Concat"
    attribute {
      name: "axis"
      i: 0
      type: INT
    }
  }
  node {
    output: "1129"
    name: "Constant_330"
    op_type: "Constant"
    attribute {
      name: "value"
      t {
        dims: 0
        data_type: 1
      }
      type: TENSOR
    }
  }
  node {
    input: "1119"
    output: "1130"
    name: "Shape_331"
    op_type: "Shape"
  }
  node {
    output: "1131"
    name: "Constant_332"
    op_type: "Constant"
    attribute {
      name: "value"
      t {
        dims: 1
        data_type: 7
      }
      type: TENSOR
    }
  }
  node {
    output: "1132"
    name: "Constant_333"
    op_type: "Constant"
    attribute {
      name: "value"
      t {
        dims: 1
        data_type: 7
      }
      type: TENSOR
    }
  }
  node {
    output: "1133"
    name: "Constant_334"
    op_type: "Constant"
    attribute {
      name: "value"
      t {
        dims: 1
        data_type: 7
      }
      type: TENSOR
    }
  }
  node {
    input: "1130"
    input: "1132"
    input: "1133"
    input: "1131"
    output: "1134"
    name: "Slice_335"
    op_type: "Slice"
  }
  node {
    input: "1128"
    output: "1135"
    name: "Cast_336"
    op_type: "Cast"
    attribute {
      name: "to"
      i: 7
      type: INT
    }
  }
  node {
    input: "1134"
    input: "1135"
    output: "1136"
    name: "Concat_337"
    op_type: "Concat"
    attribute {
      name: "axis"
      i: 0
      type: INT
    }
  }
  node {
    output: "1137"
    name: "Constant_338"
    op_type: "Constant"
    attribute {
      name: "value"
      t {
        dims: 0
        data_type: 1
      }
      type: TENSOR
    }
  }
  node {
    input: "1119"
    input: "1129"
    input: "1137"
    input: "1136"
    output: "1138"
    name: "Resize_339"
    op_type: "Resize"
    attribute {
      name: "coordinate_transformation_mode"
      s: "pytorch_half_pixel"
      type: STRING
    }
    attribute {
      name: "cubic_coeff_a"
      f: -0.75
      type: FLOAT
    }
    attribute {
      name: "mode"
      s: "linear"
      type: STRING
    }
    attribute {
      name: "nearest_mode"
      s: "floor"
      type: STRING
    }
  }
  node {
    input: "1138"
    input: "1081"
    output: "1139"
    name: "Concat_340"
    op_type: "Concat"
    attribute {
      name: "axis"
      i: 1
      type: INT
    }
  }
  node {
    input: "1139"
    input: "stage3.rebnconv2d.conv_s1.weight"
    input: "stage3.rebnconv2d.conv_s1.bias"
    output: "1140"
    name: "Conv_341"
    op_type: "Conv"
    attribute {
      name: "dilations"
      ints: 1
      ints: 1
      type: INTS
    }
    attribute {
      name: "group"
      i: 1
      type: INT
    }
    attribute {
      name: "kernel_shape"
      ints: 3
      ints: 3
      type: INTS
    }
    attribute {
      name: "pads"
      ints: 1
      ints: 1
      ints: 1
      ints: 1
      type: INTS
    }
    attribute {
      name: "strides"
      ints: 1
      ints: 1
      type: INTS
    }
  }
  node {
    input: "1140"
    input: "stage3.rebnconv2d.bn_s1.weight"
    input: "stage3.rebnconv2d.bn_s1.bias"
    input: "stage3.rebnconv2d.bn_s1.running_mean"
    input: "stage3.rebnconv2d.bn_s1.running_var"
    output: "1141"
    name: "BatchNormalization_342"
    op_type: "BatchNormalization"
    attribute {
      name: "epsilon"
      f: 9.999999747378752e-06
      type: FLOAT
    }
    attribute {
      name: "momentum"
      f: 0.8999999761581421
      type: FLOAT
    }
  }
  node {
    input: "1141"
    output: "1142"
    name: "Relu_343"
    op_type: "Relu"
  }
  node {
    input: "1077"
    output: "1143"
    name: "Shape_344"
    op_type: "Shape"
  }
  node {
    output: "1144"
    name: "Constant_345"
    op_type: "Constant"
    attribute {
      name: "value"
      t {
        data_type: 7
      }
      type: TENSOR
    }
  }
  node {
    input: "1143"
    input: "1144"
    output: "1145"
    name: "Gather_346"
    op_type: "Gather"
    attribute {
      name: "axis"
      i: 0
      type: INT
    }
  }
  node {
    input: "1077"
    output: "1146"
    name: "Shape_347"
    op_type: "Shape"
  }
  node {
    output: "1147"
    name: "Constant_348"
    op_type: "Constant"
    attribute {
      name: "value"
      t {
        data_type: 7
      }
      type: TENSOR
    }
  }
  node {
    input: "1146"
    input: "1147"
    output: "1148"
    name: "Gather_349"
    op_type: "Gather"
    attribute {
      name: "axis"
      i: 0
      type: INT
    }
  }
  node {
    input: "1145"
    output: "1149"
    name: "Unsqueeze_350"
    op_type: "Unsqueeze"
    attribute {
      name: "axes"
      ints: 0
      type: INTS
    }
  }
  node {
    input: "1148"
    output: "1150"
    name: "Unsqueeze_351"
    op_type: "Unsqueeze"
    attribute {
      name: "axes"
      ints: 0
      type: INTS
    }
  }
  node {
    input: "1149"
    input: "1150"
    output: "1151"
    name: "Concat_352"
    op_type: "Concat"
    attribute {
      name: "axis"
      i: 0
      type: INT
    }
  }
  node {
    output: "1152"
    name: "Constant_353"
    op_type: "Constant"
    attribute {
      name: "value"
      t {
        dims: 0
        data_type: 1
      }
      type: TENSOR
    }
  }
  node {
    input: "1142"
    output: "1153"
    name: "Shape_354"
    op_type: "Shape"
  }
  node {
    output: "1154"
    name: "Constant_355"
    op_type: "Constant"
    attribute {
      name: "value"
      t {
        dims: 1
        data_type: 7
      }
      type: TENSOR
    }
  }
  node {
    output: "1155"
    name: "Constant_356"
    op_type: "Constant"
    attribute {
      name: "value"
      t {
        dims: 1
        data_type: 7
      }
      type: TENSOR
    }
  }
  node {
    output: "1156"
    name: "Constant_357"
    op_type: "Constant"
    attribute {
      name: "value"
      t {
        dims: 1
        data_type: 7
      }
      type: TENSOR
    }
  }
  node {
    input: "1153"
    input: "1155"
    input: "1156"
    input: "1154"
    output: "1157"
    name: "Slice_358"
    op_type: "Slice"
  }
  node {
    input: "1151"
    output: "1158"
    name: "Cast_359"
    op_type: "Cast"
    attribute {
      name: "to"
      i: 7
      type: INT
    }
  }
  node {
    input: "1157"
    input: "1158"
    output: "1159"
    name: "Concat_360"
    op_type: "Concat"
    attribute {
      name: "axis"
      i: 0
      type: INT
    }
  }
  node {
    output: "1160"
    name: "Constant_361"
    op_type: "Constant"
    attribute {
      name: "value"
      t {
        dims: 0
        data_type: 1
      }
      type: TENSOR
    }
  }
  node {
    input: "1142"
    input: "1152"
    input: "1160"
    input: "1159"
    output: "1161"
    name: "Resize_362"
    op_type: "Resize"
    attribute {
      name: "coordinate_transformation_mode"
      s: "pytorch_half_pixel"
      type: STRING
    }
    attribute {
      name: "cubic_coeff_a"
      f: -0.75
      type: FLOAT
    }
    attribute {
      name: "mode"
      s: "linear"
      type: STRING
    }
    attribute {
      name: "nearest_mode"
      s: "floor"
      type: STRING
    }
  }
  node {
    input: "1161"
    input: "1077"
    output: "1162"
    name: "Concat_363"
    op_type: "Concat"
    attribute {
      name: "axis"
      i: 1
      type: INT
    }
  }
  node {
    input: "1162"
    input: "stage3.rebnconv1d.conv_s1.weight"
    input: "stage3.rebnconv1d.conv_s1.bias"
    output: "1163"
    name: "Conv_364"
    op_type: "Conv"
    attribute {
      name: "dilations"
      ints: 1
      ints: 1
      type: INTS
    }
    attribute {
      name: "group"
      i: 1
      type: INT
    }
    attribute {
      name: "kernel_shape"
      ints: 3
      ints: 3
      type: INTS
    }
    attribute {
      name: "pads"
      ints: 1
      ints: 1
      ints: 1
      ints: 1
      type: INTS
    }
    attribute {
      name: "strides"
      ints: 1
      ints: 1
      type: INTS
    }
  }
  node {
    input: "1163"
    input: "stage3.rebnconv1d.bn_s1.weight"
    input: "stage3.rebnconv1d.bn_s1.bias"
    input: "stage3.rebnconv1d.bn_s1.running_mean"
    input: "stage3.rebnconv1d.bn_s1.running_var"
    output: "1164"
    name: "BatchNormalization_365"
    op_type: "BatchNormalization"
    attribute {
      name: "epsilon"
      f: 9.999999747378752e-06
      type: FLOAT
    }
    attribute {
      name: "momentum"
      f: 0.8999999761581421
      type: FLOAT
    }
  }
  node {
    input: "1164"
    output: "1165"
    name: "Relu_366"
    op_type: "Relu"
  }
  node {
    input: "1165"
    input: "1074"
    output: "1166"
    name: "Add_367"
    op_type: "Add"
  }
  node {
    input: "1166"
    output: "1167"
    name: "MaxPool_368"
    op_type: "MaxPool"
    attribute {
      name: "ceil_mode"
      i: 1
      type: INT
    }
    attribute {
      name: "kernel_shape"
      ints: 2
      ints: 2
      type: INTS
    }
    attribute {
      name: "pads"
      ints: 0
      ints: 0
      ints: 0
      ints: 0
      type: INTS
    }
    attribute {
      name: "strides"
      ints: 2
      ints: 2
      type: INTS
    }
  }
  node {
    input: "1167"
    input: "stage4.rebnconvin.conv_s1.weight"
    input: "stage4.rebnconvin.conv_s1.bias"
    output: "1168"
    name: "Conv_369"
    op_type: "Conv"
    attribute {
      name: "dilations"
      ints: 1
      ints: 1
      type: INTS
    }
    attribute {
      name: "group"
      i: 1
      type: INT
    }
    attribute {
      name: "kernel_shape"
      ints: 3
      ints: 3
      type: INTS
    }
    attribute {
      name: "pads"
      ints: 1
      ints: 1
      ints: 1
      ints: 1
      type: INTS
    }
    attribute {
      name: "strides"
      ints: 1
      ints: 1
      type: INTS
    }
  }
  node {
    input: "1168"
    input: "stage4.rebnconvin.bn_s1.weight"
    input: "stage4.rebnconvin.bn_s1.bias"
    input: "stage4.rebnconvin.bn_s1.running_mean"
    input: "stage4.rebnconvin.bn_s1.running_var"
    output: "1169"
    name: "BatchNormalization_370"
    op_type: "BatchNormalization"
    attribute {
      name: "epsilon"
      f: 9.999999747378752e-06
      type: FLOAT
    }
    attribute {
      name: "momentum"
      f: 0.8999999761581421
      type: FLOAT
    }
  }
  node {
    input: "1169"
    output: "1170"
    name: "Relu_371"
    op_type: "Relu"
  }
  node {
    input: "1170"
    input: "stage4.rebnconv1.conv_s1.weight"
    input: "stage4.rebnconv1.conv_s1.bias"
    output: "1171"
    name: "Conv_372"
    op_type: "Conv"
    attribute {
      name: "dilations"
      ints: 1
      ints: 1
      type: INTS
    }
    attribute {
      name: "group"
      i: 1
      type: INT
    }
    attribute {
      name: "kernel_shape"
      ints: 3
      ints: 3
      type: INTS
    }
    attribute {
      name: "pads"
      ints: 1
      ints: 1
      ints: 1
      ints: 1
      type: INTS
    }
    attribute {
      name: "strides"
      ints: 1
      ints: 1
      type: INTS
    }
  }
  node {
    input: "1171"
    input: "stage4.rebnconv1.bn_s1.weight"
    input: "stage4.rebnconv1.bn_s1.bias"
    input: "stage4.rebnconv1.bn_s1.running_mean"
    input: "stage4.rebnconv1.bn_s1.running_var"
    output: "1172"
    name: "BatchNormalization_373"
    op_type: "BatchNormalization"
    attribute {
      name: "epsilon"
      f: 9.999999747378752e-06
      type: FLOAT
    }
    attribute {
      name: "momentum"
      f: 0.8999999761581421
      type: FLOAT
    }
  }
  node {
    input: "1172"
    output: "1173"
    name: "Relu_374"
    op_type: "Relu"
  }
  node {
    input: "1173"
    output: "1174"
    name: "MaxPool_375"
    op_type: "MaxPool"
    attribute {
      name: "ceil_mode"
      i: 1
      type: INT
    }
    attribute {
      name: "kernel_shape"
      ints: 2
      ints: 2
      type: INTS
    }
    attribute {
      name: "pads"
      ints: 0
      ints: 0
      ints: 0
      ints: 0
      type: INTS
    }
    attribute {
      name: "strides"
      ints: 2
      ints: 2
      type: INTS
    }
  }
  node {
    input: "1174"
    input: "stage4.rebnconv2.conv_s1.weight"
    input: "stage4.rebnconv2.conv_s1.bias"
    output: "1175"
    name: "Conv_376"
    op_type: "Conv"
    attribute {
      name: "dilations"
      ints: 1
      ints: 1
      type: INTS
    }
    attribute {
      name: "group"
      i: 1
      type: INT
    }
    attribute {
      name: "kernel_shape"
      ints: 3
      ints: 3
      type: INTS
    }
    attribute {
      name: "pads"
      ints: 1
      ints: 1
      ints: 1
      ints: 1
      type: INTS
    }
    attribute {
      name: "strides"
      ints: 1
      ints: 1
      type: INTS
    }
  }
  node {
    input: "1175"
    input: "stage4.rebnconv2.bn_s1.weight"
    input: "stage4.rebnconv2.bn_s1.bias"
    input: "stage4.rebnconv2.bn_s1.running_mean"
    input: "stage4.rebnconv2.bn_s1.running_var"
    output: "1176"
    name: "BatchNormalization_377"
    op_type: "BatchNormalization"
    attribute {
      name: "epsilon"
      f: 9.999999747378752e-06
      type: FLOAT
    }
    attribute {
      name: "momentum"
      f: 0.8999999761581421
      type: FLOAT
    }
  }
  node {
    input: "1176"
    output: "1177"
    name: "Relu_378"
    op_type: "Relu"
  }
  node {
    input: "1177"
    output: "1178"
    name: "MaxPool_379"
    op_type: "MaxPool"
    attribute {
      name: "ceil_mode"
      i: 1
      type: INT
    }
    attribute {
      name: "kernel_shape"
      ints: 2
      ints: 2
      type: INTS
    }
    attribute {
      name: "pads"
      ints: 0
      ints: 0
      ints: 0
      ints: 0
      type: INTS
    }
    attribute {
      name: "strides"
      ints: 2
      ints: 2
      type: INTS
    }
  }
  node {
    input: "1178"
    input: "stage4.rebnconv3.conv_s1.weight"
    input: "stage4.rebnconv3.conv_s1.bias"
    output: "1179"
    name: "Conv_380"
    op_type: "Conv"
    attribute {
      name: "dilations"
      ints: 1
      ints: 1
      type: INTS
    }
    attribute {
      name: "group"
      i: 1
      type: INT
    }
    attribute {
      name: "kernel_shape"
      ints: 3
      ints: 3
      type: INTS
    }
    attribute {
      name: "pads"
      ints: 1
      ints: 1
      ints: 1
      ints: 1
      type: INTS
    }
    attribute {
      name: "strides"
      ints: 1
      ints: 1
      type: INTS
    }
  }
  node {
    input: "1179"
    input: "stage4.rebnconv3.bn_s1.weight"
    input: "stage4.rebnconv3.bn_s1.bias"
    input: "stage4.rebnconv3.bn_s1.running_mean"
    input: "stage4.rebnconv3.bn_s1.running_var"
    output: "1180"
    name: "BatchNormalization_381"
    op_type: "BatchNormalization"
    attribute {
      name: "epsilon"
      f: 9.999999747378752e-06
      type: FLOAT
    }
    attribute {
      name: "momentum"
      f: 0.8999999761581421
      type: FLOAT
    }
  }
  node {
    input: "1180"
    output: "1181"
    name: "Relu_382"
    op_type: "Relu"
  }
  node {
    input: "1181"
    input: "stage4.rebnconv4.conv_s1.weight"
    input: "stage4.rebnconv4.conv_s1.bias"
    output: "1182"
    name: "Conv_383"
    op_type: "Conv"
    attribute {
      name: "dilations"
      ints: 2
      ints: 2
      type: INTS
    }
    attribute {
      name: "group"
      i: 1
      type: INT
    }
    attribute {
      name: "kernel_shape"
      ints: 3
      ints: 3
      type: INTS
    }
    attribute {
      name: "pads"
      ints: 2
      ints: 2
      ints: 2
      ints: 2
      type: INTS
    }
    attribute {
      name: "strides"
      ints: 1
      ints: 1
      type: INTS
    }
  }
  node {
    input: "1182"
    input: "stage4.rebnconv4.bn_s1.weight"
    input: "stage4.rebnconv4.bn_s1.bias"
    input: "stage4.rebnconv4.bn_s1.running_mean"
    input: "stage4.rebnconv4.bn_s1.running_var"
    output: "1183"
    name: "BatchNormalization_384"
    op_type: "BatchNormalization"
    attribute {
      name: "epsilon"
      f: 9.999999747378752e-06
      type: FLOAT
    }
    attribute {
      name: "momentum"
      f: 0.8999999761581421
      type: FLOAT
    }
  }
  node {
    input: "1183"
    output: "1184"
    name: "Relu_385"
    op_type: "Relu"
  }
  node {
    input: "1184"
    input: "1181"
    output: "1185"
    name: "Concat_386"
    op_type: "Concat"
    attribute {
      name: "axis"
      i: 1
      type: INT
    }
  }
  node {
    input: "1185"
    input: "stage4.rebnconv3d.conv_s1.weight"
    input: "stage4.rebnconv3d.conv_s1.bias"
    output: "1186"
    name: "Conv_387"
    op_type: "Conv"
    attribute {
      name: "dilations"
      ints: 1
      ints: 1
      type: INTS
    }
    attribute {
      name: "group"
      i: 1
      type: INT
    }
    attribute {
      name: "kernel_shape"
      ints: 3
      ints: 3
      type: INTS
    }
    attribute {
      name: "pads"
      ints: 1
      ints: 1
      ints: 1
      ints: 1
      type: INTS
    }
    attribute {
      name: "strides"
      ints: 1
      ints: 1
      type: INTS
    }
  }
  node {
    input: "1186"
    input: "stage4.rebnconv3d.bn_s1.weight"
    input: "stage4.rebnconv3d.bn_s1.bias"
    input: "stage4.rebnconv3d.bn_s1.running_mean"
    input: "stage4.rebnconv3d.bn_s1.running_var"
    output: "1187"
    name: "BatchNormalization_388"
    op_type: "BatchNormalization"
    attribute {
      name: "epsilon"
      f: 9.999999747378752e-06
      type: FLOAT
    }
    attribute {
      name: "momentum"
      f: 0.8999999761581421
      type: FLOAT
    }
  }
  node {
    input: "1187"
    output: "1188"
    name: "Relu_389"
    op_type: "Relu"
  }
  node {
    input: "1177"
    output: "1189"
    name: "Shape_390"
    op_type: "Shape"
  }
  node {
    output: "1190"
    name: "Constant_391"
    op_type: "Constant"
    attribute {
      name: "value"
      t {
        data_type: 7
      }
      type: TENSOR
    }
  }
  node {
    input: "1189"
    input: "1190"
    output: "1191"
    name: "Gather_392"
    op_type: "Gather"
    attribute {
      name: "axis"
      i: 0
      type: INT
    }
  }
  node {
    input: "1177"
    output: "1192"
    name: "Shape_393"
    op_type: "Shape"
  }
  node {
    output: "1193"
    name: "Constant_394"
    op_type: "Constant"
    attribute {
      name: "value"
      t {
        data_type: 7
      }
      type: TENSOR
    }
  }
  node {
    input: "1192"
    input: "1193"
    output: "1194"
    name: "Gather_395"
    op_type: "Gather"
    attribute {
      name: "axis"
      i: 0
      type: INT
    }
  }
  node {
    input: "1191"
    output: "1195"
    name: "Unsqueeze_396"
    op_type: "Unsqueeze"
    attribute {
      name: "axes"
      ints: 0
      type: INTS
    }
  }
  node {
    input: "1194"
    output: "1196"
    name: "Unsqueeze_397"
    op_type: "Unsqueeze"
    attribute {
      name: "axes"
      ints: 0
      type: INTS
    }
  }
  node {
    input: "1195"
    input: "1196"
    output: "1197"
    name: "Concat_398"
    op_type: "Concat"
    attribute {
      name: "axis"
      i: 0
      type: INT
    }
  }
  node {
    output: "1198"
    name: "Constant_399"
    op_type: "Constant"
    attribute {
      name: "value"
      t {
        dims: 0
        data_type: 1
      }
      type: TENSOR
    }
  }
  node {
    input: "1188"
    output: "1199"
    name: "Shape_400"
    op_type: "Shape"
  }
  node {
    output: "1200"
    name: "Constant_401"
    op_type: "Constant"
    attribute {
      name: "value"
      t {
        dims: 1
        data_type: 7
      }
      type: TENSOR
    }
  }
  node {
    output: "1201"
    name: "Constant_402"
    op_type: "Constant"
    attribute {
      name: "value"
      t {
        dims: 1
        data_type: 7
      }
      type: TENSOR
    }
  }
  node {
    output: "1202"
    name: "Constant_403"
    op_type: "Constant"
    attribute {
      name: "value"
      t {
        dims: 1
        data_type: 7
      }
      type: TENSOR
    }
  }
  node {
    input: "1199"
    input: "1201"
    input: "1202"
    input: "1200"
    output: "1203"
    name: "Slice_404"
    op_type: "Slice"
  }
  node {
    input: "1197"
    output: "1204"
    name: "Cast_405"
    op_type: "Cast"
    attribute {
      name: "to"
      i: 7
      type: INT
    }
  }
  node {
    input: "1203"
    input: "1204"
    output: "1205"
    name: "Concat_406"
    op_type: "Concat"
    attribute {
      name: "axis"
      i: 0
      type: INT
    }
  }
  node {
    output: "1206"
    name: "Constant_407"
    op_type: "Constant"
    attribute {
      name: "value"
      t {
        dims: 0
        data_type: 1
      }
      type: TENSOR
    }
  }
  node {
    input: "1188"
    input: "1198"
    input: "1206"
    input: "1205"
    output: "1207"
    name: "Resize_408"
    op_type: "Resize"
    attribute {
      name: "coordinate_transformation_mode"
      s: "pytorch_half_pixel"
      type: STRING
    }
    attribute {
      name: "cubic_coeff_a"
      f: -0.75
      type: FLOAT
    }
    attribute {
      name: "mode"
      s: "linear"
      type: STRING
    }
    attribute {
      name: "nearest_mode"
      s: "floor"
      type: STRING
    }
  }
  node {
    input: "1207"
    input: "1177"
    output: "1208"
    name: "Concat_409"
    op_type: "Concat"
    attribute {
      name: "axis"
      i: 1
      type: INT
    }
  }
  node {
    input: "1208"
    input: "stage4.rebnconv2d.conv_s1.weight"
    input: "stage4.rebnconv2d.conv_s1.bias"
    output: "1209"
    name: "Conv_410"
    op_type: "Conv"
    attribute {
      name: "dilations"
      ints: 1
      ints: 1
      type: INTS
    }
    attribute {
      name: "group"
      i: 1
      type: INT
    }
    attribute {
      name: "kernel_shape"
      ints: 3
      ints: 3
      type: INTS
    }
    attribute {
      name: "pads"
      ints: 1
      ints: 1
      ints: 1
      ints: 1
      type: INTS
    }
    attribute {
      name: "strides"
      ints: 1
      ints: 1
      type: INTS
    }
  }
  node {
    input: "1209"
    input: "stage4.rebnconv2d.bn_s1.weight"
    input: "stage4.rebnconv2d.bn_s1.bias"
    input: "stage4.rebnconv2d.bn_s1.running_mean"
    input: "stage4.rebnconv2d.bn_s1.running_var"
    output: "1210"
    name: "BatchNormalization_411"
    op_type: "BatchNormalization"
    attribute {
      name: "epsilon"
      f: 9.999999747378752e-06
      type: FLOAT
    }
    attribute {
      name: "momentum"
      f: 0.8999999761581421
      type: FLOAT
    }
  }
  node {
    input: "1210"
    output: "1211"
    name: "Relu_412"
    op_type: "Relu"
  }
  node {
    input: "1173"
    output: "1212"
    name: "Shape_413"
    op_type: "Shape"
  }
  node {
    output: "1213"
    name: "Constant_414"
    op_type: "Constant"
    attribute {
      name: "value"
      t {
        data_type: 7
      }
      type: TENSOR
    }
  }
  node {
    input: "1212"
    input: "1213"
    output: "1214"
    name: "Gather_415"
    op_type: "Gather"
    attribute {
      name: "axis"
      i: 0
      type: INT
    }
  }
  node {
    input: "1173"
    output: "1215"
    name: "Shape_416"
    op_type: "Shape"
  }
  node {
    output: "1216"
    name: "Constant_417"
    op_type: "Constant"
    attribute {
      name: "value"
      t {
        data_type: 7
      }
      type: TENSOR
    }
  }
  node {
    input: "1215"
    input: "1216"
    output: "1217"
    name: "Gather_418"
    op_type: "Gather"
    attribute {
      name: "axis"
      i: 0
      type: INT
    }
  }
  node {
    input: "1214"
    output: "1218"
    name: "Unsqueeze_419"
    op_type: "Unsqueeze"
    attribute {
      name: "axes"
      ints: 0
      type: INTS
    }
  }
  node {
    input: "1217"
    output: "1219"
    name: "Unsqueeze_420"
    op_type: "Unsqueeze"
    attribute {
      name: "axes"
      ints: 0
      type: INTS
    }
  }
  node {
    input: "1218"
    input: "1219"
    output: "1220"
    name: "Concat_421"
    op_type: "Concat"
    attribute {
      name: "axis"
      i: 0
      type: INT
    }
  }
  node {
    output: "1221"
    name: "Constant_422"
    op_type: "Constant"
    attribute {
      name: "value"
      t {
        dims: 0
        data_type: 1
      }
      type: TENSOR
    }
  }
  node {
    input: "1211"
    output: "1222"
    name: "Shape_423"
    op_type: "Shape"
  }
  node {
    output: "1223"
    name: "Constant_424"
    op_type: "Constant"
    attribute {
      name: "value"
      t {
        dims: 1
        data_type: 7
      }
      type: TENSOR
    }
  }
  node {
    output: "1224"
    name: "Constant_425"
    op_type: "Constant"
    attribute {
      name: "value"
      t {
        dims: 1
        data_type: 7
      }
      type: TENSOR
    }
  }
  node {
    output: "1225"
    name: "Constant_426"
    op_type: "Constant"
    attribute {
      name: "value"
      t {
        dims: 1
        data_type: 7
      }
      type: TENSOR
    }
  }
  node {
    input: "1222"
    input: "1224"
    input: "1225"
    input: "1223"
    output: "1226"
    name: "Slice_427"
    op_type: "Slice"
  }
  node {
    input: "1220"
    output: "1227"
    name: "Cast_428"
    op_type: "Cast"
    attribute {
      name: "to"
      i: 7
      type: INT
    }
  }
  node {
    input: "1226"
    input: "1227"
    output: "1228"
    name: "Concat_429"
    op_type: "Concat"
    attribute {
      name: "axis"
      i: 0
      type: INT
    }
  }
  node {
    output: "1229"
    name: "Constant_430"
    op_type: "Constant"
    attribute {
      name: "value"
      t {
        dims: 0
        data_type: 1
      }
      type: TENSOR
    }
  }
  node {
    input: "1211"
    input: "1221"
    input: "1229"
    input: "1228"
    output: "1230"
    name: "Resize_431"
    op_type: "Resize"
    attribute {
      name: "coordinate_transformation_mode"
      s: "pytorch_half_pixel"
      type: STRING
    }
    attribute {
      name: "cubic_coeff_a"
      f: -0.75
      type: FLOAT
    }
    attribute {
      name: "mode"
      s: "linear"
      type: STRING
    }
    attribute {
      name: "nearest_mode"
      s: "floor"
      type: STRING
    }
  }
  node {
    input: "1230"
    input: "1173"
    output: "1231"
    name: "Concat_432"
    op_type: "Concat"
    attribute {
      name: "axis"
      i: 1
      type: INT
    }
  }
  node {
    input: "1231"
    input: "stage4.rebnconv1d.conv_s1.weight"
    input: "stage4.rebnconv1d.conv_s1.bias"
    output: "1232"
    name: "Conv_433"
    op_type: "Conv"
    attribute {
      name: "dilations"
      ints: 1
      ints: 1
      type: INTS
    }
    attribute {
      name: "group"
      i: 1
      type: INT
    }
    attribute {
      name: "kernel_shape"
      ints: 3
      ints: 3
      type: INTS
    }
    attribute {
      name: "pads"
      ints: 1
      ints: 1
      ints: 1
      ints: 1
      type: INTS
    }
    attribute {
      name: "strides"
      ints: 1
      ints: 1
      type: INTS
    }
  }
  node {
    input: "1232"
    input: "stage4.rebnconv1d.bn_s1.weight"
    input: "stage4.rebnconv1d.bn_s1.bias"
    input: "stage4.rebnconv1d.bn_s1.running_mean"
    input: "stage4.rebnconv1d.bn_s1.running_var"
    output: "1233"
    name: "BatchNormalization_434"
    op_type: "BatchNormalization"
    attribute {
      name: "epsilon"
      f: 9.999999747378752e-06
      type: FLOAT
    }
    attribute {
      name: "momentum"
      f: 0.8999999761581421
      type: FLOAT
    }
  }
  node {
    input: "1233"
    output: "1234"
    name: "Relu_435"
    op_type: "Relu"
  }
  node {
    input: "1234"
    input: "1170"
    output: "1235"
    name: "Add_436"
    op_type: "Add"
  }
  node {
    input: "1235"
    output: "1236"
    name: "MaxPool_437"
    op_type: "MaxPool"
    attribute {
      name: "ceil_mode"
      i: 1
      type: INT
    }
    attribute {
      name: "kernel_shape"
      ints: 2
      ints: 2
      type: INTS
    }
    attribute {
      name: "pads"
      ints: 0
      ints: 0
      ints: 0
      ints: 0
      type: INTS
    }
    attribute {
      name: "strides"
      ints: 2
      ints: 2
      type: INTS
    }
  }
  node {
    input: "1236"
    input: "stage5.rebnconvin.conv_s1.weight"
    input: "stage5.rebnconvin.conv_s1.bias"
    output: "1237"
    name: "Conv_438"
    op_type: "Conv"
    attribute {
      name: "dilations"
      ints: 1
      ints: 1
      type: INTS
    }
    attribute {
      name: "group"
      i: 1
      type: INT
    }
    attribute {
      name: "kernel_shape"
      ints: 3
      ints: 3
      type: INTS
    }
    attribute {
      name: "pads"
      ints: 1
      ints: 1
      ints: 1
      ints: 1
      type: INTS
    }
    attribute {
      name: "strides"
      ints: 1
      ints: 1
      type: INTS
    }
  }
  node {
    input: "1237"
    input: "stage5.rebnconvin.bn_s1.weight"
    input: "stage5.rebnconvin.bn_s1.bias"
    input: "stage5.rebnconvin.bn_s1.running_mean"
    input: "stage5.rebnconvin.bn_s1.running_var"
    output: "1238"
    name: "BatchNormalization_439"
    op_type: "BatchNormalization"
    attribute {
      name: "epsilon"
      f: 9.999999747378752e-06
      type: FLOAT
    }
    attribute {
      name: "momentum"
      f: 0.8999999761581421
      type: FLOAT
    }
  }
  node {
    input: "1238"
    output: "1239"
    name: "Relu_440"
    op_type: "Relu"
  }
  node {
    input: "1239"
    input: "stage5.rebnconv1.conv_s1.weight"
    input: "stage5.rebnconv1.conv_s1.bias"
    output: "1240"
    name: "Conv_441"
    op_type: "Conv"
    attribute {
      name: "dilations"
      ints: 1
      ints: 1
      type: INTS
    }
    attribute {
      name: "group"
      i: 1
      type: INT
    }
    attribute {
      name: "kernel_shape"
      ints: 3
      ints: 3
      type: INTS
    }
    attribute {
      name: "pads"
      ints: 1
      ints: 1
      ints: 1
      ints: 1
      type: INTS
    }
    attribute {
      name: "strides"
      ints: 1
      ints: 1
      type: INTS
    }
  }
  node {
    input: "1240"
    input: "stage5.rebnconv1.bn_s1.weight"
    input: "stage5.rebnconv1.bn_s1.bias"
    input: "stage5.rebnconv1.bn_s1.running_mean"
    input: "stage5.rebnconv1.bn_s1.running_var"
    output: "1241"
    name: "BatchNormalization_442"
    op_type: "BatchNormalization"
    attribute {
      name: "epsilon"
      f: 9.999999747378752e-06
      type: FLOAT
    }
    attribute {
      name: "momentum"
      f: 0.8999999761581421
      type: FLOAT
    }
  }
  node {
    input: "1241"
    output: "1242"
    name: "Relu_443"
    op_type: "Relu"
  }
  node {
    input: "1242"
    input: "stage5.rebnconv2.conv_s1.weight"
    input: "stage5.rebnconv2.conv_s1.bias"
    output: "1243"
    name: "Conv_444"
    op_type: "Conv"
    attribute {
      name: "dilations"
      ints: 2
      ints: 2
      type: INTS
    }
    attribute {
      name: "group"
      i: 1
      type: INT
    }
    attribute {
      name: "kernel_shape"
      ints: 3
      ints: 3
      type: INTS
    }
    attribute {
      name: "pads"
      ints: 2
      ints: 2
      ints: 2
      ints: 2
      type: INTS
    }
    attribute {
      name: "strides"
      ints: 1
      ints: 1
      type: INTS
    }
  }
  node {
    input: "1243"
    input: "stage5.rebnconv2.bn_s1.weight"
    input: "stage5.rebnconv2.bn_s1.bias"
    input: "stage5.rebnconv2.bn_s1.running_mean"
    input: "stage5.rebnconv2.bn_s1.running_var"
    output: "1244"
    name: "BatchNormalization_445"
    op_type: "BatchNormalization"
    attribute {
      name: "epsilon"
      f: 9.999999747378752e-06
      type: FLOAT
    }
    attribute {
      name: "momentum"
      f: 0.8999999761581421
      type: FLOAT
    }
  }
  node {
    input: "1244"
    output: "1245"
    name: "Relu_446"
    op_type: "Relu"
  }
  node {
    input: "1245"
    input: "stage5.rebnconv3.conv_s1.weight"
    input: "stage5.rebnconv3.conv_s1.bias"
    output: "1246"
    name: "Conv_447"
    op_type: "Conv"
    attribute {
      name: "dilations"
      ints: 4
      ints: 4
      type: INTS
    }
    attribute {
      name: "group"
      i: 1
      type: INT
    }
    attribute {
      name: "kernel_shape"
      ints: 3
      ints: 3
      type: INTS
    }
    attribute {
      name: "pads"
      ints: 4
      ints: 4
      ints: 4
      ints: 4
      type: INTS
    }
    attribute {
      name: "strides"
      ints: 1
      ints: 1
      type: INTS
    }
  }
  node {
    input: "1246"
    input: "stage5.rebnconv3.bn_s1.weight"
    input: "stage5.rebnconv3.bn_s1.bias"
    input: "stage5.rebnconv3.bn_s1.running_mean"
    input: "stage5.rebnconv3.bn_s1.running_var"
    output: "1247"
    name: "BatchNormalization_448"
    op_type: "BatchNormalization"
    attribute {
      name: "epsilon"
      f: 9.999999747378752e-06
      type: FLOAT
    }
    attribute {
      name: "momentum"
      f: 0.8999999761581421
      type: FLOAT
    }
  }
  node {
    input: "1247"
    output: "1248"
    name: "Relu_449"
    op_type: "Relu"
  }
  node {
    input: "1248"
    input: "stage5.rebnconv4.conv_s1.weight"
    input: "stage5.rebnconv4.conv_s1.bias"
    output: "1249"
    name: "Conv_450"
    op_type: "Conv"
    attribute {
      name: "dilations"
      ints: 8
      ints: 8
      type: INTS
    }
    attribute {
      name: "group"
      i: 1
      type: INT
    }
    attribute {
      name: "kernel_shape"
      ints: 3
      ints: 3
      type: INTS
    }
    attribute {
      name: "pads"
      ints: 8
      ints: 8
      ints: 8
      ints: 8
      type: INTS
    }
    attribute {
      name: "strides"
      ints: 1
      ints: 1
      type: INTS
    }
  }
  node {
    input: "1249"
    input: "stage5.rebnconv4.bn_s1.weight"
    input: "stage5.rebnconv4.bn_s1.bias"
    input: "stage5.rebnconv4.bn_s1.running_mean"
    input: "stage5.rebnconv4.bn_s1.running_var"
    output: "1250"
    name: "BatchNormalization_451"
    op_type: "BatchNormalization"
    attribute {
      name: "epsilon"
      f: 9.999999747378752e-06
      type: FLOAT
    }
    attribute {
      name: "momentum"
      f: 0.8999999761581421
      type: FLOAT
    }
  }
  node {
    input: "1250"
    output: "1251"
    name: "Relu_452"
    op_type: "Relu"
  }
  node {
    input: "1251"
    input: "1248"
    output: "1252"
    name: "Concat_453"
    op_type: "Concat"
    attribute {
      name: "axis"
      i: 1
      type: INT
    }
  }
  node {
    input: "1252"
    input: "stage5.rebnconv3d.conv_s1.weight"
    input: "stage5.rebnconv3d.conv_s1.bias"
    output: "1253"
    name: "Conv_454"
    op_type: "Conv"
    attribute {
      name: "dilations"
      ints: 4
      ints: 4
      type: INTS
    }
    attribute {
      name: "group"
      i: 1
      type: INT
    }
    attribute {
      name: "kernel_shape"
      ints: 3
      ints: 3
      type: INTS
    }
    attribute {
      name: "pads"
      ints: 4
      ints: 4
      ints: 4
      ints: 4
      type: INTS
    }
    attribute {
      name: "strides"
      ints: 1
      ints: 1
      type: INTS
    }
  }
  node {
    input: "1253"
    input: "stage5.rebnconv3d.bn_s1.weight"
    input: "stage5.rebnconv3d.bn_s1.bias"
    input: "stage5.rebnconv3d.bn_s1.running_mean"
    input: "stage5.rebnconv3d.bn_s1.running_var"
    output: "1254"
    name: "BatchNormalization_455"
    op_type: "BatchNormalization"
    attribute {
      name: "epsilon"
      f: 9.999999747378752e-06
      type: FLOAT
    }
    attribute {
      name: "momentum"
      f: 0.8999999761581421
      type: FLOAT
    }
  }
  node {
    input: "1254"
    output: "1255"
    name: "Relu_456"
    op_type: "Relu"
  }
  node {
    input: "1255"
    input: "1245"
    output: "1256"
    name: "Concat_457"
    op_type: "Concat"
    attribute {
      name: "axis"
      i: 1
      type: INT
    }
  }
  node {
    input: "1256"
    input: "stage5.rebnconv2d.conv_s1.weight"
    input: "stage5.rebnconv2d.conv_s1.bias"
    output: "1257"
    name: "Conv_458"
    op_type: "Conv"
    attribute {
      name: "dilations"
      ints: 2
      ints: 2
      type: INTS
    }
    attribute {
      name: "group"
      i: 1
      type: INT
    }
    attribute {
      name: "kernel_shape"
      ints: 3
      ints: 3
      type: INTS
    }
    attribute {
      name: "pads"
      ints: 2
      ints: 2
      ints: 2
      ints: 2
      type: INTS
    }
    attribute {
      name: "strides"
      ints: 1
      ints: 1
      type: INTS
    }
  }
  node {
    input: "1257"
    input: "stage5.rebnconv2d.bn_s1.weight"
    input: "stage5.rebnconv2d.bn_s1.bias"
    input: "stage5.rebnconv2d.bn_s1.running_mean"
    input: "stage5.rebnconv2d.bn_s1.running_var"
    output: "1258"
    name: "BatchNormalization_459"
    op_type: "BatchNormalization"
    attribute {
      name: "epsilon"
      f: 9.999999747378752e-06
      type: FLOAT
    }
    attribute {
      name: "momentum"
      f: 0.8999999761581421
      type: FLOAT
    }
  }
  node {
    input: "1258"
    output: "1259"
    name: "Relu_460"
    op_type: "Relu"
  }
  node {
    input: "1259"
    input: "1242"
    output: "1260"
    name: "Concat_461"
    op_type: "Concat"
    attribute {
      name: "axis"
      i: 1
      type: INT
    }
  }
  node {
    input: "1260"
    input: "stage5.rebnconv1d.conv_s1.weight"
    input: "stage5.rebnconv1d.conv_s1.bias"
    output: "1261"
    name: "Conv_462"
    op_type: "Conv"
    attribute {
      name: "dilations"
      ints: 1
      ints: 1
      type: INTS
    }
    attribute {
      name: "group"
      i: 1
      type: INT
    }
    attribute {
      name: "kernel_shape"
      ints: 3
      ints: 3
      type: INTS
    }
    attribute {
      name: "pads"
      ints: 1
      ints: 1
      ints: 1
      ints: 1
      type: INTS
    }
    attribute {
      name: "strides"
      ints: 1
      ints: 1
      type: INTS
    }
  }
  node {
    input: "1261"
    input: "stage5.rebnconv1d.bn_s1.weight"
    input: "stage5.rebnconv1d.bn_s1.bias"
    input: "stage5.rebnconv1d.bn_s1.running_mean"
    input: "stage5.rebnconv1d.bn_s1.running_var"
    output: "1262"
    name: "BatchNormalization_463"
    op_type: "BatchNormalization"
    attribute {
      name: "epsilon"
      f: 9.999999747378752e-06
      type: FLOAT
    }
    attribute {
      name: "momentum"
      f: 0.8999999761581421
      type: FLOAT
    }
  }
  node {
    input: "1262"
    output: "1263"
    name: "Relu_464"
    op_type: "Relu"
  }
  node {
    input: "1263"
    input: "1239"
    output: "1264"
    name: "Add_465"
    op_type: "Add"
  }
  node {
    input: "1264"
    output: "1265"
    name: "MaxPool_466"
    op_type: "MaxPool"
    attribute {
      name: "ceil_mode"
      i: 1
      type: INT
    }
    attribute {
      name: "kernel_shape"
      ints: 2
      ints: 2
      type: INTS
    }
    attribute {
      name: "pads"
      ints: 0
      ints: 0
      ints: 0
      ints: 0
      type: INTS
    }
    attribute {
      name: "strides"
      ints: 2
      ints: 2
      type: INTS
    }
  }
  node {
    input: "1265"
    input: "stage6.rebnconvin.conv_s1.weight"
    input: "stage6.rebnconvin.conv_s1.bias"
    output: "1266"
    name: "Conv_467"
    op_type: "Conv"
    attribute {
      name: "dilations"
      ints: 1
      ints: 1
      type: INTS
    }
    attribute {
      name: "group"
      i: 1
      type: INT
    }
    attribute {
      name: "kernel_shape"
      ints: 3
      ints: 3
      type: INTS
    }
    attribute {
      name: "pads"
      ints: 1
      ints: 1
      ints: 1
      ints: 1
      type: INTS
    }
    attribute {
      name: "strides"
      ints: 1
      ints: 1
      type: INTS
    }
  }
  node {
    input: "1266"
    input: "stage6.rebnconvin.bn_s1.weight"
    input: "stage6.rebnconvin.bn_s1.bias"
    input: "stage6.rebnconvin.bn_s1.running_mean"
    input: "stage6.rebnconvin.bn_s1.running_var"
    output: "1267"
    name: "BatchNormalization_468"
    op_type: "BatchNormalization"
    attribute {
      name: "epsilon"
      f: 9.999999747378752e-06
      type: FLOAT
    }
    attribute {
      name: "momentum"
      f: 0.8999999761581421
      type: FLOAT
    }
  }
  node {
    input: "1267"
    output: "1268"
    name: "Relu_469"
    op_type: "Relu"
  }
  node {
    input: "1268"
    input: "stage6.rebnconv1.conv_s1.weight"
    input: "stage6.rebnconv1.conv_s1.bias"
    output: "1269"
    name: "Conv_470"
    op_type: "Conv"
    attribute {
      name: "dilations"
      ints: 1
      ints: 1
      type: INTS
    }
    attribute {
      name: "group"
      i: 1
      type: INT
    }
    attribute {
      name: "kernel_shape"
      ints: 3
      ints: 3
      type: INTS
    }
    attribute {
      name: "pads"
      ints: 1
      ints: 1
      ints: 1
      ints: 1
      type: INTS
    }
    attribute {
      name: "strides"
      ints: 1
      ints: 1
      type: INTS
    }
  }
  node {
    input: "1269"
    input: "stage6.rebnconv1.bn_s1.weight"
    input: "stage6.rebnconv1.bn_s1.bias"
    input: "stage6.rebnconv1.bn_s1.running_mean"
    input: "stage6.rebnconv1.bn_s1.running_var"
    output: "1270"
    name: "BatchNormalization_471"
    op_type: "BatchNormalization"
    attribute {
      name: "epsilon"
      f: 9.999999747378752e-06
      type: FLOAT
    }
    attribute {
      name: "momentum"
      f: 0.8999999761581421
      type: FLOAT
    }
  }
  node {
    input: "1270"
    output: "1271"
    name: "Relu_472"
    op_type: "Relu"
  }
  node {
    input: "1271"
    input: "stage6.rebnconv2.conv_s1.weight"
    input: "stage6.rebnconv2.conv_s1.bias"
    output: "1272"
    name: "Conv_473"
    op_type: "Conv"
    attribute {
      name: "dilations"
      ints: 2
      ints: 2
      type: INTS
    }
    attribute {
      name: "group"
      i: 1
      type: INT
    }
    attribute {
      name: "kernel_shape"
      ints: 3
      ints: 3
      type: INTS
    }
    attribute {
      name: "pads"
      ints: 2
      ints: 2
      ints: 2
      ints: 2
      type: INTS
    }
    attribute {
      name: "strides"
      ints: 1
      ints: 1
      type: INTS
    }
  }
  node {
    input: "1272"
    input: "stage6.rebnconv2.bn_s1.weight"
    input: "stage6.rebnconv2.bn_s1.bias"
    input: "stage6.rebnconv2.bn_s1.running_mean"
    input: "stage6.rebnconv2.bn_s1.running_var"
    output: "1273"
    name: "BatchNormalization_474"
    op_type: "BatchNormalization"
    attribute {
      name: "epsilon"
      f: 9.999999747378752e-06
      type: FLOAT
    }
    attribute {
      name: "momentum"
      f: 0.8999999761581421
      type: FLOAT
    }
  }
  node {
    input: "1273"
    output: "1274"
    name: "Relu_475"
    op_type: "Relu"
  }
  node {
    input: "1274"
    input: "stage6.rebnconv3.conv_s1.weight"
    input: "stage6.rebnconv3.conv_s1.bias"
    output: "1275"
    name: "Conv_476"
    op_type: "Conv"
    attribute {
      name: "dilations"
      ints: 4
      ints: 4
      type: INTS
    }
    attribute {
      name: "group"
      i: 1
      type: INT
    }
    attribute {
      name: "kernel_shape"
      ints: 3
      ints: 3
      type: INTS
    }
    attribute {
      name: "pads"
      ints: 4
      ints: 4
      ints: 4
      ints: 4
      type: INTS
    }
    attribute {
      name: "strides"
      ints: 1
      ints: 1
      type: INTS
    }
  }
  node {
    input: "1275"
    input: "stage6.rebnconv3.bn_s1.weight"
    input: "stage6.rebnconv3.bn_s1.bias"
    input: "stage6.rebnconv3.bn_s1.running_mean"
    input: "stage6.rebnconv3.bn_s1.running_var"
    output: "1276"
    name: "BatchNormalization_477"
    op_type: "BatchNormalization"
    attribute {
      name: "epsilon"
      f: 9.999999747378752e-06
      type: FLOAT
    }
    attribute {
      name: "momentum"
      f: 0.8999999761581421
      type: FLOAT
    }
  }
  node {
    input: "1276"
    output: "1277"
    name: "Relu_478"
    op_type: "Relu"
  }
  node {
    input: "1277"
    input: "stage6.rebnconv4.conv_s1.weight"
    input: "stage6.rebnconv4.conv_s1.bias"
    output: "1278"
    name: "Conv_479"
    op_type: "Conv"
    attribute {
      name: "dilations"
      ints: 8
      ints: 8
      type: INTS
    }
    attribute {
      name: "group"
      i: 1
      type: INT
    }
    attribute {
      name: "kernel_shape"
      ints: 3
      ints: 3
      type: INTS
    }
    attribute {
      name: "pads"
      ints: 8
      ints: 8
      ints: 8
      ints: 8
      type: INTS
    }
    attribute {
      name: "strides"
      ints: 1
      ints: 1
      type: INTS
    }
  }
  node {
    input: "1278"
    input: "stage6.rebnconv4.bn_s1.weight"
    input: "stage6.rebnconv4.bn_s1.bias"
    input: "stage6.rebnconv4.bn_s1.running_mean"
    input: "stage6.rebnconv4.bn_s1.running_var"
    output: "1279"
    name: "BatchNormalization_480"
    op_type: "BatchNormalization"
    attribute {
      name: "epsilon"
      f: 9.999999747378752e-06
      type: FLOAT
    }
    attribute {
      name: "momentum"
      f: 0.8999999761581421
      type: FLOAT
    }
  }
  node {
    input: "1279"
    output: "1280"
    name: "Relu_481"
    op_type: "Relu"
  }
  node {
    input: "1280"
    input: "1277"
    output: "1281"
    name: "Concat_482"
    op_type: "Concat"
    attribute {
      name: "axis"
      i: 1
      type: INT
    }
  }
  node {
    input: "1281"
    input: "stage6.rebnconv3d.conv_s1.weight"
    input: "stage6.rebnconv3d.conv_s1.bias"
    output: "1282"
    name: "Conv_483"
    op_type: "Conv"
    attribute {
      name: "dilations"
      ints: 4
      ints: 4
      type: INTS
    }
    attribute {
      name: "group"
      i: 1
      type: INT
    }
    attribute {
      name: "kernel_shape"
      ints: 3
      ints: 3
      type: INTS
    }
    attribute {
      name: "pads"
      ints: 4
      ints: 4
      ints: 4
      ints: 4
      type: INTS
    }
    attribute {
      name: "strides"
      ints: 1
      ints: 1
      type: INTS
    }
  }
  node {
    input: "1282"
    input: "stage6.rebnconv3d.bn_s1.weight"
    input: "stage6.rebnconv3d.bn_s1.bias"
    input: "stage6.rebnconv3d.bn_s1.running_mean"
    input: "stage6.rebnconv3d.bn_s1.running_var"
    output: "1283"
    name: "BatchNormalization_484"
    op_type: "BatchNormalization"
    attribute {
      name: "epsilon"
      f: 9.999999747378752e-06
      type: FLOAT
    }
    attribute {
      name: "momentum"
      f: 0.8999999761581421
      type: FLOAT
    }
  }
  node {
    input: "1283"
    output: "1284"
    name: "Relu_485"
    op_type: "Relu"
  }
  node {
    input: "1284"
    input: "1274"
    output: "1285"
    name: "Concat_486"
    op_type: "Concat"
    attribute {
      name: "axis"
      i: 1
      type: INT
    }
  }
  node {
    input: "1285"
    input: "stage6.rebnconv2d.conv_s1.weight"
    input: "stage6.rebnconv2d.conv_s1.bias"
    output: "1286"
    name: "Conv_487"
    op_type: "Conv"
    attribute {
      name: "dilations"
      ints: 2
      ints: 2
      type: INTS
    }
    attribute {
      name: "group"
      i: 1
      type: INT
    }
    attribute {
      name: "kernel_shape"
      ints: 3
      ints: 3
      type: INTS
    }
    attribute {
      name: "pads"
      ints: 2
      ints: 2
      ints: 2
      ints: 2
      type: INTS
    }
    attribute {
      name: "strides"
      ints: 1
      ints: 1
      type: INTS
    }
  }
  node {
    input: "1286"
    input: "stage6.rebnconv2d.bn_s1.weight"
    input: "stage6.rebnconv2d.bn_s1.bias"
    input: "stage6.rebnconv2d.bn_s1.running_mean"
    input: "stage6.rebnconv2d.bn_s1.running_var"
    output: "1287"
    name: "BatchNormalization_488"
    op_type: "BatchNormalization"
    attribute {
      name: "epsilon"
      f: 9.999999747378752e-06
      type: FLOAT
    }
    attribute {
      name: "momentum"
      f: 0.8999999761581421
      type: FLOAT
    }
  }
  node {
    input: "1287"
    output: "1288"
    name: "Relu_489"
    op_type: "Relu"
  }
  node {
    input: "1288"
    input: "1271"
    output: "1289"
    name: "Concat_490"
    op_type: "Concat"
    attribute {
      name: "axis"
      i: 1
      type: INT
    }
  }
  node {
    input: "1289"
    input: "stage6.rebnconv1d.conv_s1.weight"
    input: "stage6.rebnconv1d.conv_s1.bias"
    output: "1290"
    name: "Conv_491"
    op_type: "Conv"
    attribute {
      name: "dilations"
      ints: 1
      ints: 1
      type: INTS
    }
    attribute {
      name: "group"
      i: 1
      type: INT
    }
    attribute {
      name: "kernel_shape"
      ints: 3
      ints: 3
      type: INTS
    }
    attribute {
      name: "pads"
      ints: 1
      ints: 1
      ints: 1
      ints: 1
      type: INTS
    }
    attribute {
      name: "strides"
      ints: 1
      ints: 1
      type: INTS
    }
  }
  node {
    input: "1290"
    input: "stage6.rebnconv1d.bn_s1.weight"
    input: "stage6.rebnconv1d.bn_s1.bias"
    input: "stage6.rebnconv1d.bn_s1.running_mean"
    input: "stage6.rebnconv1d.bn_s1.running_var"
    output: "1291"
    name: "BatchNormalization_492"
    op_type: "BatchNormalization"
    attribute {
      name: "epsilon"
      f: 9.999999747378752e-06
      type: FLOAT
    }
    attribute {
      name: "momentum"
      f: 0.8999999761581421
      type: FLOAT
    }
  }
  node {
    input: "1291"
    output: "1292"
    name: "Relu_493"
    op_type: "Relu"
  }
  node {
    input: "1292"
    input: "1268"
    output: "1293"
    name: "Add_494"
    op_type: "Add"
  }
  node {
    input: "1264"
    output: "1294"
    name: "Shape_495"
    op_type: "Shape"
  }
  node {
    output: "1295"
    name: "Constant_496"
    op_type: "Constant"
    attribute {
      name: "value"
      t {
        data_type: 7
      }
      type: TENSOR
    }
  }
  node {
    input: "1294"
    input: "1295"
    output: "1296"
    name: "Gather_497"
    op_type: "Gather"
    attribute {
      name: "axis"
      i: 0
      type: INT
    }
  }
  node {
    input: "1264"
    output: "1297"
    name: "Shape_498"
    op_type: "Shape"
  }
  node {
    output: "1298"
    name: "Constant_499"
    op_type: "Constant"
    attribute {
      name: "value"
      t {
        data_type: 7
      }
      type: TENSOR
    }
  }
  node {
    input: "1297"
    input: "1298"
    output: "1299"
    name: "Gather_500"
    op_type: "Gather"
    attribute {
      name: "axis"
      i: 0
      type: INT
    }
  }
  node {
    input: "1296"
    output: "1300"
    name: "Unsqueeze_501"
    op_type: "Unsqueeze"
    attribute {
      name: "axes"
      ints: 0
      type: INTS
    }
  }
  node {
    input: "1299"
    output: "1301"
    name: "Unsqueeze_502"
    op_type: "Unsqueeze"
    attribute {
      name: "axes"
      ints: 0
      type: INTS
    }
  }
  node {
    input: "1300"
    input: "1301"
    output: "1302"
    name: "Concat_503"
    op_type: "Concat"
    attribute {
      name: "axis"
      i: 0
      type: INT
    }
  }
  node {
    output: "1303"
    name: "Constant_504"
    op_type: "Constant"
    attribute {
      name: "value"
      t {
        dims: 0
        data_type: 1
      }
      type: TENSOR
    }
  }
  node {
    input: "1293"
    output: "1304"
    name: "Shape_505"
    op_type: "Shape"
  }
  node {
    output: "1305"
    name: "Constant_506"
    op_type: "Constant"
    attribute {
      name: "value"
      t {
        dims: 1
        data_type: 7
      }
      type: TENSOR
    }
  }
  node {
    output: "1306"
    name: "Constant_507"
    op_type: "Constant"
    attribute {
      name: "value"
      t {
        dims: 1
        data_type: 7
      }
      type: TENSOR
    }
  }
  node {
    output: "1307"
    name: "Constant_508"
    op_type: "Constant"
    attribute {
      name: "value"
      t {
        dims: 1
        data_type: 7
      }
      type: TENSOR
    }
  }
  node {
    input: "1304"
    input: "1306"
    input: "1307"
    input: "1305"
    output: "1308"
    name: "Slice_509"
    op_type: "Slice"
  }
  node {
    input: "1302"
    output: "1309"
    name: "Cast_510"
    op_type: "Cast"
    attribute {
      name: "to"
      i: 7
      type: INT
    }
  }
  node {
    input: "1308"
    input: "1309"
    output: "1310"
    name: "Concat_511"
    op_type: "Concat"
    attribute {
      name: "axis"
      i: 0
      type: INT
    }
  }
  node {
    output: "1311"
    name: "Constant_512"
    op_type: "Constant"
    attribute {
      name: "value"
      t {
        dims: 0
        data_type: 1
      }
      type: TENSOR
    }
  }
  node {
    input: "1293"
    input: "1303"
    input: "1311"
    input: "1310"
    output: "1312"
    name: "Resize_513"
    op_type: "Resize"
    attribute {
      name: "coordinate_transformation_mode"
      s: "pytorch_half_pixel"
      type: STRING
    }
    attribute {
      name: "cubic_coeff_a"
      f: -0.75
      type: FLOAT
    }
    attribute {
      name: "mode"
      s: "linear"
      type: STRING
    }
    attribute {
      name: "nearest_mode"
      s: "floor"
      type: STRING
    }
  }
  node {
    input: "1312"
    input: "1264"
    output: "1313"
    name: "Concat_514"
    op_type: "Concat"
    attribute {
      name: "axis"
      i: 1
      type: INT
    }
  }
  node {
    input: "1313"
    input: "stage5d.rebnconvin.conv_s1.weight"
    input: "stage5d.rebnconvin.conv_s1.bias"
    output: "1314"
    name: "Conv_515"
    op_type: "Conv"
    attribute {
      name: "dilations"
      ints: 1
      ints: 1
      type: INTS
    }
    attribute {
      name: "group"
      i: 1
      type: INT
    }
    attribute {
      name: "kernel_shape"
      ints: 3
      ints: 3
      type: INTS
    }
    attribute {
      name: "pads"
      ints: 1
      ints: 1
      ints: 1
      ints: 1
      type: INTS
    }
    attribute {
      name: "strides"
      ints: 1
      ints: 1
      type: INTS
    }
  }
  node {
    input: "1314"
    input: "stage5d.rebnconvin.bn_s1.weight"
    input: "stage5d.rebnconvin.bn_s1.bias"
    input: "stage5d.rebnconvin.bn_s1.running_mean"
    input: "stage5d.rebnconvin.bn_s1.running_var"
    output: "1315"
    name: "BatchNormalization_516"
    op_type: "BatchNormalization"
    attribute {
      name: "epsilon"
      f: 9.999999747378752e-06
      type: FLOAT
    }
    attribute {
      name: "momentum"
      f: 0.8999999761581421
      type: FLOAT
    }
  }
  node {
    input: "1315"
    output: "1316"
    name: "Relu_517"
    op_type: "Relu"
  }
  node {
    input: "1316"
    input: "stage5d.rebnconv1.conv_s1.weight"
    input: "stage5d.rebnconv1.conv_s1.bias"
    output: "1317"
    name: "Conv_518"
    op_type: "Conv"
    attribute {
      name: "dilations"
      ints: 1
      ints: 1
      type: INTS
    }
    attribute {
      name: "group"
      i: 1
      type: INT
    }
    attribute {
      name: "kernel_shape"
      ints: 3
      ints: 3
      type: INTS
    }
    attribute {
      name: "pads"
      ints: 1
      ints: 1
      ints: 1
      ints: 1
      type: INTS
    }
    attribute {
      name: "strides"
      ints: 1
      ints: 1
      type: INTS
    }
  }
  node {
    input: "1317"
    input: "stage5d.rebnconv1.bn_s1.weight"
    input: "stage5d.rebnconv1.bn_s1.bias"
    input: "stage5d.rebnconv1.bn_s1.running_mean"
    input: "stage5d.rebnconv1.bn_s1.running_var"
    output: "1318"
    name: "BatchNormalization_519"
    op_type: "BatchNormalization"
    attribute {
      name: "epsilon"
      f: 9.999999747378752e-06
      type: FLOAT
    }
    attribute {
      name: "momentum"
      f: 0.8999999761581421
      type: FLOAT
    }
  }
  node {
    input: "1318"
    output: "1319"
    name: "Relu_520"
    op_type: "Relu"
  }
  node {
    input: "1319"
    input: "stage5d.rebnconv2.conv_s1.weight"
    input: "stage5d.rebnconv2.conv_s1.bias"
    output: "1320"
    name: "Conv_521"
    op_type: "Conv"
    attribute {
      name: "dilations"
      ints: 2
      ints: 2
      type: INTS
    }
    attribute {
      name: "group"
      i: 1
      type: INT
    }
    attribute {
      name: "kernel_shape"
      ints: 3
      ints: 3
      type: INTS
    }
    attribute {
      name: "pads"
      ints: 2
      ints: 2
      ints: 2
      ints: 2
      type: INTS
    }
    attribute {
      name: "strides"
      ints: 1
      ints: 1
      type: INTS
    }
  }
  node {
    input: "1320"
    input: "stage5d.rebnconv2.bn_s1.weight"
    input: "stage5d.rebnconv2.bn_s1.bias"
    input: "stage5d.rebnconv2.bn_s1.running_mean"
    input: "stage5d.rebnconv2.bn_s1.running_var"
    output: "1321"
    name: "BatchNormalization_522"
    op_type: "BatchNormalization"
    attribute {
      name: "epsilon"
      f: 9.999999747378752e-06
      type: FLOAT
    }
    attribute {
      name: "momentum"
      f: 0.8999999761581421
      type: FLOAT
    }
  }
  node {
    input: "1321"
    output: "1322"
    name: "Relu_523"
    op_type: "Relu"
  }
  node {
    input: "1322"
    input: "stage5d.rebnconv3.conv_s1.weight"
    input: "stage5d.rebnconv3.conv_s1.bias"
    output: "1323"
    name: "Conv_524"
    op_type: "Conv"
    attribute {
      name: "dilations"
      ints: 4
      ints: 4
      type: INTS
    }
    attribute {
      name: "group"
      i: 1
      type: INT
    }
    attribute {
      name: "kernel_shape"
      ints: 3
      ints: 3
      type: INTS
    }
    attribute {
      name: "pads"
      ints: 4
      ints: 4
      ints: 4
      ints: 4
      type: INTS
    }
    attribute {
      name: "strides"
      ints: 1
      ints: 1
      type: INTS
    }
  }
  node {
    input: "1323"
    input: "stage5d.rebnconv3.bn_s1.weight"
    input: "stage5d.rebnconv3.bn_s1.bias"
    input: "stage5d.rebnconv3.bn_s1.running_mean"
    input: "stage5d.rebnconv3.bn_s1.running_var"
    output: "1324"
    name: "BatchNormalization_525"
    op_type: "BatchNormalization"
    attribute {
      name: "epsilon"
      f: 9.999999747378752e-06
      type: FLOAT
    }
    attribute {
      name: "momentum"
      f: 0.8999999761581421
      type: FLOAT
    }
  }
  node {
    input: "1324"
    output: "1325"
    name: "Relu_526"
    op_type: "Relu"
  }
  node {
    input: "1325"
    input: "stage5d.rebnconv4.conv_s1.weight"
    input: "stage5d.rebnconv4.conv_s1.bias"
    output: "1326"
    name: "Conv_527"
    op_type: "Conv"
    attribute {
      name: "dilations"
      ints: 8
      ints: 8
      type: INTS
    }
    attribute {
      name: "group"
      i: 1
      type: INT
    }
    attribute {
      name: "kernel_shape"
      ints: 3
      ints: 3
      type: INTS
    }
    attribute {
      name: "pads"
      ints: 8
      ints: 8
      ints: 8
      ints: 8
      type: INTS
    }
    attribute {
      name: "strides"
      ints: 1
      ints: 1
      type: INTS
    }
  }
  node {
    input: "1326"
    input: "stage5d.rebnconv4.bn_s1.weight"
    input: "stage5d.rebnconv4.bn_s1.bias"
    input: "stage5d.rebnconv4.bn_s1.running_mean"
    input: "stage5d.rebnconv4.bn_s1.running_var"
    output: "1327"
    name: "BatchNormalization_528"
    op_type: "BatchNormalization"
    attribute {
      name: "epsilon"
      f: 9.999999747378752e-06
      type: FLOAT
    }
    attribute {
      name: "momentum"
      f: 0.8999999761581421
      type: FLOAT
    }
  }
  node {
    input: "1327"
    output: "1328"
    name: "Relu_529"
    op_type: "Relu"
  }
  node {
    input: "1328"
    input: "1325"
    output: "1329"
    name: "Concat_530"
    op_type: "Concat"
    attribute {
      name: "axis"
      i: 1
      type: INT
    }
  }
  node {
    input: "1329"
    input: "stage5d.rebnconv3d.conv_s1.weight"
    input: "stage5d.rebnconv3d.conv_s1.bias"
    output: "1330"
    name: "Conv_531"
    op_type: "Conv"
    attribute {
      name: "dilations"
      ints: 4
      ints: 4
      type: INTS
    }
    attribute {
      name: "group"
      i: 1
      type: INT
    }
    attribute {
      name: "kernel_shape"
      ints: 3
      ints: 3
      type: INTS
    }
    attribute {
      name: "pads"
      ints: 4
      ints: 4
      ints: 4
      ints: 4
      type: INTS
    }
    attribute {
      name: "strides"
      ints: 1
      ints: 1
      type: INTS
    }
  }
  node {
    input: "1330"
    input: "stage5d.rebnconv3d.bn_s1.weight"
    input: "stage5d.rebnconv3d.bn_s1.bias"
    input: "stage5d.rebnconv3d.bn_s1.running_mean"
    input: "stage5d.rebnconv3d.bn_s1.running_var"
    output: "1331"
    name: "BatchNormalization_532"
    op_type: "BatchNormalization"
    attribute {
      name: "epsilon"
      f: 9.999999747378752e-06
      type: FLOAT
    }
    attribute {
      name: "momentum"
      f: 0.8999999761581421
      type: FLOAT
    }
  }
  node {
    input: "1331"
    output: "1332"
    name: "Relu_533"
    op_type: "Relu"
  }
  node {
    input: "1332"
    input: "1322"
    output: "1333"
    name: "Concat_534"
    op_type: "Concat"
    attribute {
      name: "axis"
      i: 1
      type: INT
    }
  }
  node {
    input: "1333"
    input: "stage5d.rebnconv2d.conv_s1.weight"
    input: "stage5d.rebnconv2d.conv_s1.bias"
    output: "1334"
    name: "Conv_535"
    op_type: "Conv"
    attribute {
      name: "dilations"
      ints: 2
      ints: 2
      type: INTS
    }
    attribute {
      name: "group"
      i: 1
      type: INT
    }
    attribute {
      name: "kernel_shape"
      ints: 3
      ints: 3
      type: INTS
    }
    attribute {
      name: "pads"
      ints: 2
      ints: 2
      ints: 2
      ints: 2
      type: INTS
    }
    attribute {
      name: "strides"
      ints: 1
      ints: 1
      type: INTS
    }
  }
  node {
    input: "1334"
    input: "stage5d.rebnconv2d.bn_s1.weight"
    input: "stage5d.rebnconv2d.bn_s1.bias"
    input: "stage5d.rebnconv2d.bn_s1.running_mean"
    input: "stage5d.rebnconv2d.bn_s1.running_var"
    output: "1335"
    name: "BatchNormalization_536"
    op_type: "BatchNormalization"
    attribute {
      name: "epsilon"
      f: 9.999999747378752e-06
      type: FLOAT
    }
    attribute {
      name: "momentum"
      f: 0.8999999761581421
      type: FLOAT
    }
  }
  node {
    input: "1335"
    output: "1336"
    name: "Relu_537"
    op_type: "Relu"
  }
  node {
    input: "1336"
    input: "1319"
    output: "1337"
    name: "Concat_538"
    op_type: "Concat"
    attribute {
      name: "axis"
      i: 1
      type: INT
    }
  }
  node {
    input: "1337"
    input: "stage5d.rebnconv1d.conv_s1.weight"
    input: "stage5d.rebnconv1d.conv_s1.bias"
    output: "1338"
    name: "Conv_539"
    op_type: "Conv"
    attribute {
      name: "dilations"
      ints: 1
      ints: 1
      type: INTS
    }
    attribute {
      name: "group"
      i: 1
      type: INT
    }
    attribute {
      name: "kernel_shape"
      ints: 3
      ints: 3
      type: INTS
    }
    attribute {
      name: "pads"
      ints: 1
      ints: 1
      ints: 1
      ints: 1
      type: INTS
    }
    attribute {
      name: "strides"
      ints: 1
      ints: 1
      type: INTS
    }
  }
  node {
    input: "1338"
    input: "stage5d.rebnconv1d.bn_s1.weight"
    input: "stage5d.rebnconv1d.bn_s1.bias"
    input: "stage5d.rebnconv1d.bn_s1.running_mean"
    input: "stage5d.rebnconv1d.bn_s1.running_var"
    output: "1339"
    name: "BatchNormalization_540"
    op_type: "BatchNormalization"
    attribute {
      name: "epsilon"
      f: 9.999999747378752e-06
      type: FLOAT
    }
    attribute {
      name: "momentum"
      f: 0.8999999761581421
      type: FLOAT
    }
  }
  node {
    input: "1339"
    output: "1340"
    name: "Relu_541"
    op_type: "Relu"
  }
  node {
    input: "1340"
    input: "1316"
    output: "1341"
    name: "Add_542"
    op_type: "Add"
  }
  node {
    input: "1235"
    output: "1342"
    name: "Shape_543"
    op_type: "Shape"
  }
  node {
    output: "1343"
    name: "Constant_544"
    op_type: "Constant"
    attribute {
      name: "value"
      t {
        data_type: 7
      }
      type: TENSOR
    }
  }
  node {
    input: "1342"
    input: "1343"
    output: "1344"
    name: "Gather_545"
    op_type: "Gather"
    attribute {
      name: "axis"
      i: 0
      type: INT
    }
  }
  node {
…
      name: "stage2.rebnconvin.bn_s1.weight"
  }
  initializer {
      dims: 128
      data_type: 1
      name: "stage2.rebnconvin.conv_s1.bias"
  }
  initializer {
      dims: 128
      dims: 64
      dims: 3
      dims: 3
      data_type: 1
      name: "stage2.rebnconvin.conv_s1.weight"
  }
  initializer {
      dims: 32
      data_type: 1
      name: "stage2d.rebnconv1.bn_s1.bias"
  }
  initializer {
      dims: 32
      data_type: 1
      name: "stage2d.rebnconv1.bn_s1.running_mean"
  }
  initializer {
      dims: 32
      data_type: 1
      name: "stage2d.rebnconv1.bn_s1.running_var"
  }
  initializer {
      dims: 32
      data_type: 1
      name: "stage2d.rebnconv1.bn_s1.weight"
  }
  initializer {
      dims: 32
      data_type: 1
      name: "stage2d.rebnconv1.conv_s1.bias"
  }
  initializer {
      dims: 32
      dims: 64
      dims: 3
      dims: 3
      data_type: 1
      name: "stage2d.rebnconv1.conv_s1.weight"
  }
  initializer {
      dims: 64
      data_type: 1
      name: "stage2d.rebnconv1d.bn_s1.bias"
  }
  initializer {
      dims: 64
      data_type: 1
      name: "stage2d.rebnconv1d.bn_s1.running_mean"
  }
  initializer {
      dims: 64
      data_type: 1
      name: "stage2d.rebnconv1d.bn_s1.running_var"
  }
  initializer {
      dims: 64
      data_type: 1
      name: "stage2d.rebnconv1d.bn_s1.weight"
  }
  initializer {
      dims: 64
      data_type: 1
      name: "stage2d.rebnconv1d.conv_s1.bias"
  }
  initializer {
      dims: 64
      dims: 64
      dims: 3
      dims: 3
      data_type: 1
      name: "stage2d.rebnconv1d.conv_s1.weight"
  }
  initializer {
      dims: 32
      data_type: 1
      name: "stage2d.rebnconv2.bn_s1.bias"
  }
  initializer {
      dims: 32
      data_type: 1
      name: "stage2d.rebnconv2.bn_s1.running_mean"
  }
  initializer {
      dims: 32
      data_type: 1
      name: "stage2d.rebnconv2.bn_s1.running_var"
  }
  initializer {
      dims: 32
      data_type: 1
      name: "stage2d.rebnconv2.bn_s1.weight"
  }
  initializer {
      dims: 32
      data_type: 1
      name: "stage2d.rebnconv2.conv_s1.bias"
  }
  initializer {
      dims: 32
      dims: 32
      dims: 3
      dims: 3
      data_type: 1
      name: "stage2d.rebnconv2.conv_s1.weight"
  }
  initializer {
      dims: 32
      data_type: 1
      name: "stage2d.rebnconv2d.bn_s1.bias"
  }
  initializer {
      dims: 32
      data_type: 1
      name: "stage2d.rebnconv2d.bn_s1.running_mean"
  }
  initializer {
      dims: 32
      data_type: 1
      name: "stage2d.rebnconv2d.bn_s1.running_var"
  }
  initializer {
      dims: 32
      data_type: 1
      name: "stage2d.rebnconv2d.bn_s1.weight"
  }
  initializer {
      dims: 32
      data_type: 1
      name: "stage2d.rebnconv2d.conv_s1.bias"
  }
  initializer {
      dims: 32
      dims: 64
      dims: 3
      dims: 3
      data_type: 1
      name: "stage2d.rebnconv2d.conv_s1.weight"
  }
  initializer {
      dims: 32
      data_type: 1
      name: "stage2d.rebnconv3.bn_s1.bias"
  }
  initializer {
      dims: 32
      data_type: 1
      name: "stage2d.rebnconv3.bn_s1.running_mean"
  }
  initializer {
      dims: 32
      data_type: 1
      name: "stage2d.rebnconv3.bn_s1.running_var"
  }
  initializer {
      dims: 32
      data_type: 1
      name: "stage2d.rebnconv3.bn_s1.weight"
  }
  initializer {
      dims: 32
      data_type: 1
      name: "stage2d.rebnconv3.conv_s1.bias"
  }
  initializer {
      dims: 32
      dims: 32
      dims: 3
      dims: 3
      data_type: 1
      name: "stage2d.rebnconv3.conv_s1.weight"
  }
  initializer {
      dims: 32
      data_type: 1
      name: "stage2d.rebnconv3d.bn_s1.bias"
  }
  initializer {
      dims: 32
      data_type: 1
      name: "stage2d.rebnconv3d.bn_s1.running_mean"
  }
  initializer {
      dims: 32
      data_type: 1
      name: "stage2d.rebnconv3d.bn_s1.running_var"
  }
  initializer {
      dims: 32
      data_type: 1
      name: "stage2d.rebnconv3d.bn_s1.weight"
  }
  initializer {
      dims: 32
      data_type: 1
      name: "stage2d.rebnconv3d.conv_s1.bias"
  }
  initializer {
      dims: 32
      dims: 64
      dims: 3
      dims: 3
      data_type: 1
      name: "stage2d.rebnconv3d.conv_s1.weight"
  }
  initializer {
      dims: 32
      data_type: 1
      name: "stage2d.rebnconv4.bn_s1.bias"
  }
  initializer {
      dims: 32
      data_type: 1
      name: "stage2d.rebnconv4.bn_s1.running_mean"
  }
  initializer {
      dims: 32
      data_type: 1
      name: "stage2d.rebnconv4.bn_s1.running_var"
  }
  initializer {
      dims: 32
      data_type: 1
      name: "stage2d.rebnconv4.bn_s1.weight"
  }
  initializer {
      dims: 32
      data_type: 1
      name: "stage2d.rebnconv4.conv_s1.bias"
  }
  initializer {
      dims: 32
      dims: 32
      dims: 3
      dims: 3
      data_type: 1
      name: "stage2d.rebnconv4.conv_s1.weight"
  }
  initializer {
      dims: 32
      data_type: 1
      name: "stage2d.rebnconv4d.bn_s1.bias"
  }
  initializer {
      dims: 32
      data_type: 1
      name: "stage2d.rebnconv4d.bn_s1.running_mean"
  }
  initializer {
      dims: 32
      data_type: 1
      name: "stage2d.rebnconv4d.bn_s1.running_var"
  }
  initializer {
      dims: 32
      data_type: 1
      name: "stage2d.rebnconv4d.bn_s1.weight"
  }
  initializer {
      dims: 32
      data_type: 1
      name: "stage2d.rebnconv4d.conv_s1.bias"
  }
  initializer {
      dims: 32
      dims: 64
      dims: 3
      dims: 3
      data_type: 1
      name: "stage2d.rebnconv4d.conv_s1.weight"
  }
  initializer {
      dims: 32
      data_type: 1
      name: "stage2d.rebnconv5.bn_s1.bias"
  }
  initializer {
      dims: 32
      data_type: 1
      name: "stage2d.rebnconv5.bn_s1.running_mean"
  }
  initializer {
      dims: 32
      data_type: 1
      name: "stage2d.rebnconv5.bn_s1.running_var"
  }
  initializer {
      dims: 32
      data_type: 1
      name: "stage2d.rebnconv5.bn_s1.weight"
  }
  initializer {
      dims: 32
      data_type: 1
      name: "stage2d.rebnconv5.conv_s1.bias"
  }
  initializer {
      dims: 32
      dims: 32
      dims: 3
      dims: 3
      data_type: 1
      name: "stage2d.rebnconv5.conv_s1.weight"
  }
  initializer {
      dims: 32
      data_type: 1
      name: "stage2d.rebnconv5d.bn_s1.bias"
  }
  initializer {
      dims: 32
      data_type: 1
      name: "stage2d.rebnconv5d.bn_s1.running_mean"
  }
  initializer {
      dims: 32
      data_type: 1
      name: "stage2d.rebnconv5d.bn_s1.running_var"
  }
  initializer {
      dims: 32
      data_type: 1
      name: "stage2d.rebnconv5d.bn_s1.weight"
  }
  initializer {
      dims: 32
      data_type: 1
      name: "stage2d.rebnconv5d.conv_s1.bias"
  }
  initializer {
      dims: 32
      dims: 64
      dims: 3
      dims: 3
      data_type: 1
      name: "stage2d.rebnconv5d.conv_s1.weight"
  }
  initializer {
      dims: 32
      data_type: 1
      name: "stage2d.rebnconv6.bn_s1.bias"
  }
  initializer {
      dims: 32
      data_type: 1
      name: "stage2d.rebnconv6.bn_s1.running_mean"
  }
  initializer {
      dims: 32
      data_type: 1
      name: "stage2d.rebnconv6.bn_s1.running_var"
  }
  initializer {
      dims: 32
      data_type: 1
      name: "stage2d.rebnconv6.bn_s1.weight"
  }
  initializer {
      dims: 32
      data_type: 1
      name: "stage2d.rebnconv6.conv_s1.bias"
  }
  initializer {
      dims: 32
      dims: 32
      dims: 3
      dims: 3
      data_type: 1
      name: "stage2d.rebnconv6.conv_s1.weight"
  }
  initializer {
      dims: 64
      data_type: 1
      name: "stage2d.rebnconvin.bn_s1.bias"
  }
  initializer {
      dims: 64
      data_type: 1
      name: "stage2d.rebnconvin.bn_s1.running_mean"
  }
  initializer {
      dims: 64
      data_type: 1
      name: "stage2d.rebnconvin.bn_s1.running_var"
  }
  initializer {
      dims: 64
      data_type: 1
      name: "stage2d.rebnconvin.bn_s1.weight"
  }
  initializer {
      dims: 64
      data_type: 1
      name: "stage2d.rebnconvin.conv_s1.bias"
  }
  initializer {
      dims: 64
      dims: 256
      dims: 3
      dims: 3
      data_type: 1
      name: "stage2d.rebnconvin.conv_s1.weight"
  }
  initializer {
      dims: 64
      data_type: 1
      name: "stage3.rebnconv1.bn_s1.bias"
  }
  initializer {
      dims: 64
      data_type: 1
      name: "stage3.rebnconv1.bn_s1.running_mean"
  }
  initializer {
      dims: 64
      data_type: 1
      name: "stage3.rebnconv1.bn_s1.running_var"
  }
  initializer {
      dims: 64
      data_type: 1
      name: "stage3.rebnconv1.bn_s1.weight"
  }
  initializer {
      dims: 64
      data_type: 1
      name: "stage3.rebnconv1.conv_s1.bias"
  }
  initializer {
      dims: 64
      dims: 256
      dims: 3
      dims: 3
      data_type: 1
      name: "stage3.rebnconv1.conv_s1.weight"
  }
  initializer {
      dims: 256
      data_type: 1
      name: "stage3.rebnconv1d.bn_s1.bias"
  }
  initializer {
      dims: 256
      data_type: 1
      name: "stage3.rebnconv1d.bn_s1.running_mean"
  }
  initializer {
      dims: 256
      data_type: 1
      name: "stage3.rebnconv1d.bn_s1.running_var"
  }
  initializer {
      dims: 256
      data_type: 1
      name: "stage3.rebnconv1d.bn_s1.weight"
  }
  initializer {
      dims: 256
      data_type: 1
      name: "stage3.rebnconv1d.conv_s1.bias"
  }
  initializer {
      dims: 256
      dims: 128
      dims: 3
      dims: 3
      data_type: 1
      name: "stage3.rebnconv1d.conv_s1.weight"
  }
  initializer {
      dims: 64
      data_type: 1
      name: "stage3.rebnconv2.bn_s1.bias"
  }
  initializer {
      dims: 64
      data_type: 1
      name: "stage3.rebnconv2.bn_s1.running_mean"
  }
  initializer {
      dims: 64
      data_type: 1
      name: "stage3.rebnconv2.bn_s1.running_var"
  }
  initializer {
      dims: 64
      data_type: 1
      name: "stage3.rebnconv2.bn_s1.weight"
  }
  initializer {
      dims: 64
      data_type: 1
      name: "stage3.rebnconv2.conv_s1.bias"
  }
  initializer {
      dims: 64
      dims: 64
      dims: 3
      dims: 3
      data_type: 1
      name: "stage3.rebnconv2.conv_s1.weight"
  }
  initializer {
      dims: 64
      data_type: 1
      name: "stage3.rebnconv2d.bn_s1.bias"
  }
  initializer {
      dims: 64
      data_type: 1
      name: "stage3.rebnconv2d.bn_s1.running_mean"
  }
  initializer {
      dims: 64
      data_type: 1
      name: "stage3.rebnconv2d.bn_s1.running_var"
  }
  initializer {
      dims: 64
      data_type: 1
      name: "stage3.rebnconv2d.bn_s1.weight"
  }
  initializer {
      dims: 64
      data_type: 1
      name: "stage3.rebnconv2d.conv_s1.bias"
  }
  initializer {
      dims: 64
      dims: 128
      dims: 3
      dims: 3
      data_type: 1
      name: "stage3.rebnconv2d.conv_s1.weight"
  }
  initializer {
      dims: 64
      data_type: 1
      name: "stage3.rebnconv3.bn_s1.bias"
  }
  initializer {
      dims: 64
      data_type: 1
      name: "stage3.rebnconv3.bn_s1.running_mean"
  }
  initializer {
      dims: 64
      data_type: 1
      name: "stage3.rebnconv3.bn_s1.running_var"
  }
  initializer {
      dims: 64
      data_type: 1
      name: "stage3.rebnconv3.bn_s1.weight"
  }
  initializer {
      dims: 64
      data_type: 1
      name: "stage3.rebnconv3.conv_s1.bias"
  }
  initializer {
      dims: 64
      dims: 64
      dims: 3
      dims: 3
      data_type: 1
      name: "stage3.rebnconv3.conv_s1.weight"
  }
  initializer {
      dims: 64
      data_type: 1
      name: "stage3.rebnconv3d.bn_s1.bias"
  }
  initializer {
      dims: 64
      data_type: 1
      name: "stage3.rebnconv3d.bn_s1.running_mean"
  }
  initializer {
      dims: 64
      data_type: 1
      name: "stage3.rebnconv3d.bn_s1.running_var"
  }
  initializer {
      dims: 64
      data_type: 1
      name: "stage3.rebnconv3d.bn_s1.weight"
  }
  initializer {
      dims: 64
      data_type: 1
      name: "stage3.rebnconv3d.conv_s1.bias"
  }
  initializer {
      dims: 64
      dims: 128
      dims: 3
      dims: 3
      data_type: 1
      name: "stage3.rebnconv3d.conv_s1.weight"
  }
  initializer {
      dims: 64
      data_type: 1
      name: "stage3.rebnconv4.bn_s1.bias"
  }
  initializer {
      dims: 64
      data_type: 1
      name: "stage3.rebnconv4.bn_s1.running_mean"
  }
  initializer {
      dims: 64
      data_type: 1
      name: "stage3.rebnconv4.bn_s1.running_var"
  }
  initializer {
      dims: 64
      data_type: 1
      name: "stage3.rebnconv4.bn_s1.weight"
  }
  initializer {
      dims: 64
      data_type: 1
      name: "stage3.rebnconv4.conv_s1.bias"
  }
  initializer {
      dims: 64
      dims: 64
      dims: 3
      dims: 3
      data_type: 1
      name: "stage3.rebnconv4.conv_s1.weight"
  }
  initializer {
      dims: 64
      data_type: 1
      name: "stage3.rebnconv4d.bn_s1.bias"
  }
  initializer {
      dims: 64
      data_type: 1
      name: "stage3.rebnconv4d.bn_s1.running_mean"
  }
  initializer {
      dims: 64
      data_type: 1
      name: "stage3.rebnconv4d.bn_s1.running_var"
  }
  initializer {
      dims: 64
      data_type: 1
      name: "stage3.rebnconv4d.bn_s1.weight"
  }
  initializer {
      dims: 64
      data_type: 1
      name: "stage3.rebnconv4d.conv_s1.bias"
  }
  initializer {
      dims: 64
      dims: 128
      dims: 3
      dims: 3
      data_type: 1
      name: "stage3.rebnconv4d.conv_s1.weight"
  }
  initializer {
      dims: 64
      data_type: 1
      name: "stage3.rebnconv5.bn_s1.bias"
  }
  initializer {
      dims: 64
      data_type: 1
      name: "stage3.rebnconv5.bn_s1.running_mean"
  }
  initializer {
      dims: 64
      data_type: 1
      name: "stage3.rebnconv5.bn_s1.running_var"
  }
  initializer {
      dims: 64
      data_type: 1
      name: "stage3.rebnconv5.bn_s1.weight"
  }
  initializer {
      dims: 64
      data_type: 1
      name: "stage3.rebnconv5.conv_s1.bias"
  }
  initializer {
      dims: 64
      dims: 64
      dims: 3
      dims: 3
      data_type: 1
      name: "stage3.rebnconv5.conv_s1.weight"
  }
  initializer {
      dims: 256
      data_type: 1
      name: "stage3.rebnconvin.bn_s1.bias"
  }
  initializer {
      dims: 256
      data_type: 1
      name: "stage3.rebnconvin.bn_s1.running_mean"
  }
  initializer {
      dims: 256
      data_type: 1
      name: "stage3.rebnconvin.bn_s1.running_var"
  }
  initializer {
      dims: 256
      data_type: 1
      name: "stage3.rebnconvin.bn_s1.weight"
  }
  initializer {
      dims: 256
      data_type: 1
      name: "stage3.rebnconvin.conv_s1.bias"
  }
  initializer {
      dims: 256
      dims: 128
      dims: 3
      dims: 3
      data_type: 1
      name: "stage3.rebnconvin.conv_s1.weight"
  }
  initializer {
      dims: 64
      data_type: 1
      name: "stage3d.rebnconv1.bn_s1.bias"
  }
  initializer {
      dims: 64
      data_type: 1
      name: "stage3d.rebnconv1.bn_s1.running_mean"
  }
  initializer {
      dims: 64
      data_type: 1
      name: "stage3d.rebnconv1.bn_s1.running_var"
  }
  initializer {
      dims: 64
      data_type: 1
      name: "stage3d.rebnconv1.bn_s1.weight"
  }
  initializer {
      dims: 64
      data_type: 1
      name: "stage3d.rebnconv1.conv_s1.bias"
  }
  initializer {
      dims: 64
      dims: 128
      dims: 3
      dims: 3
      data_type: 1
      name: "stage3d.rebnconv1.conv_s1.weight"
  }
  initializer {
      dims: 128
      data_type: 1
      name: "stage3d.rebnconv1d.bn_s1.bias"
  }
  initializer {
      dims: 128
      data_type: 1
      name: "stage3d.rebnconv1d.bn_s1.running_mean"
  }
  initializer {
      dims: 128
      data_type: 1
      name: "stage3d.rebnconv1d.bn_s1.running_var"
  }
  initializer {
      dims: 128
      data_type: 1
      name: "stage3d.rebnconv1d.bn_s1.weight"
  }
  initializer {
      dims: 128
      data_type: 1
      name: "stage3d.rebnconv1d.conv_s1.bias"
  }
  initializer {
      dims: 128
      dims: 128
      dims: 3
      dims: 3
      data_type: 1
      name: "stage3d.rebnconv1d.conv_s1.weight"
  }
  initializer {
      dims: 64
      data_type: 1
      name: "stage3d.rebnconv2.bn_s1.bias"
  }
  initializer {
      dims: 64
      data_type: 1
      name: "stage3d.rebnconv2.bn_s1.running_mean"
  }
  initializer {
      dims: 64
      data_type: 1
      name: "stage3d.rebnconv2.bn_s1.running_var"
  }
  initializer {
      dims: 64
      data_type: 1
      name: "stage3d.rebnconv2.bn_s1.weight"
  }
  initializer {
      dims: 64
      data_type: 1
      name: "stage3d.rebnconv2.conv_s1.bias"
  }
  initializer {
      dims: 64
      dims: 64
      dims: 3
      dims: 3
      data_type: 1
      name: "stage3d.rebnconv2.conv_s1.weight"
  }
  initializer {
      dims: 64
      data_type: 1
      name: "stage3d.rebnconv2d.bn_s1.bias"
  }
  initializer {
      dims: 64
      data_type: 1
      name: "stage3d.rebnconv2d.bn_s1.running_mean"
  }
  initializer {
      dims: 64
      data_type: 1
      name: "stage3d.rebnconv2d.bn_s1.running_var"
  }
  initializer {
      dims: 64
      data_type: 1
      name: "stage3d.rebnconv2d.bn_s1.weight"
  }
  initializer {
      dims: 64
      data_type: 1
      name: "stage3d.rebnconv2d.conv_s1.bias"
  }
  initializer {
      dims: 64
      dims: 128
      dims: 3
      dims: 3
      data_type: 1
      name: "stage3d.rebnconv2d.conv_s1.weight"
  }
  initializer {
      dims: 64
      data_type: 1
      name: "stage3d.rebnconv3.bn_s1.bias"
  }
  initializer {
      dims: 64
      data_type: 1
      name: "stage3d.rebnconv3.bn_s1.running_mean"
  }
  initializer {
      dims: 64
      data_type: 1
      name: "stage3d.rebnconv3.bn_s1.running_var"
  }
  initializer {
      dims: 64
      data_type: 1
      name: "stage3d.rebnconv3.bn_s1.weight"
  }
  initializer {
      dims: 64
      data_type: 1
      name: "stage3d.rebnconv3.conv_s1.bias"
  }
  initializer {
      dims: 64
      dims: 64
      dims: 3
      dims: 3
      data_type: 1
      name: "stage3d.rebnconv3.conv_s1.weight"
  }
  initializer {
      dims: 64
      data_type: 1
      name: "stage3d.rebnconv3d.bn_s1.bias"
  }
  initializer {
      dims: 64
      data_type: 1
      name: "stage3d.rebnconv3d.bn_s1.running_mean"
  }
  initializer {
      dims: 64
      data_type: 1
      name: "stage3d.rebnconv3d.bn_s1.running_var"
  }
  initializer {
      dims: 64
      data_type: 1
      name: "stage3d.rebnconv3d.bn_s1.weight"
  }
  initializer {
      dims: 64
      data_type: 1
      name: "stage3d.rebnconv3d.conv_s1.bias"
  }
  initializer {
      dims: 64
      dims: 128
      dims: 3
      dims: 3
      data_type: 1
      name: "stage3d.rebnconv3d.conv_s1.weight"
  }
  initializer {
      dims: 64
      data_type: 1
      name: "stage3d.rebnconv4.bn_s1.bias"
  }
  initializer {
      dims: 64
      data_type: 1
      name: "stage3d.rebnconv4.bn_s1.running_mean"
  }
  initializer {
      dims: 64
      data_type: 1
      name: "stage3d.rebnconv4.bn_s1.running_var"
  }
  initializer {
      dims: 64
      data_type: 1
      name: "stage3d.rebnconv4.bn_s1.weight"
  }
  initializer {
      dims: 64
      data_type: 1
      name: "stage3d.rebnconv4.conv_s1.bias"
  }
  initializer {
      dims: 64
      dims: 64
      dims: 3
      dims: 3
      data_type: 1
      name: "stage3d.rebnconv4.conv_s1.weight"
  }
  initializer {
      dims: 64
      data_type: 1
      name: "stage3d.rebnconv4d.bn_s1.bias"
  }
  initializer {
      dims: 64
      data_type: 1
      name: "stage3d.rebnconv4d.bn_s1.running_mean"
  }
  initializer {
      dims: 64
      data_type: 1
      name: "stage3d.rebnconv4d.bn_s1.running_var"
  }
  initializer {
      dims: 64
      data_type: 1
      name: "stage3d.rebnconv4d.bn_s1.weight"
  }
  initializer {
      dims: 64
      data_type: 1
      name: "stage3d.rebnconv4d.conv_s1.bias"
  }
  initializer {
      dims: 64
      dims: 128
      dims: 3
      dims: 3
      data_type: 1
      name: "stage3d.rebnconv4d.conv_s1.weight"
  }
  initializer {
      dims: 64
      data_type: 1
      name: "stage3d.rebnconv5.bn_s1.bias"
  }
  initializer {
      dims: 64
      data_type: 1
      name: "stage3d.rebnconv5.bn_s1.running_mean"
  }
  initializer {
      dims: 64
      data_type: 1
      name: "stage3d.rebnconv5.bn_s1.running_var"
  }
  initializer {
      dims: 64
      data_type: 1
      name: "stage3d.rebnconv5.bn_s1.weight"
  }
  initializer {
      dims: 64
      data_type: 1
      name: "stage3d.rebnconv5.conv_s1.bias"
  }
  initializer {
      dims: 64
      dims: 64
      dims: 3
      dims: 3
      data_type: 1
      name: "stage3d.rebnconv5.conv_s1.weight"
  }
  initializer {
      dims: 128
      data_type: 1
      name: "stage3d.rebnconvin.bn_s1.bias"
  }
  initializer {
      dims: 128
      data_type: 1
      name: "stage3d.rebnconvin.bn_s1.running_mean"
  }
  initializer {
      dims: 128
      data_type: 1
      name: "stage3d.rebnconvin.bn_s1.running_var"
  }
  initializer {
      dims: 128
      data_type: 1
      name: "stage3d.rebnconvin.bn_s1.weight"
  }
  initializer {
      dims: 128
      data_type: 1
      name: "stage3d.rebnconvin.conv_s1.bias"
  }
  initializer {
      dims: 128
      dims: 512
      dims: 3
      dims: 3
      data_type: 1
      name: "stage3d.rebnconvin.conv_s1.weight"
  }
  initializer {
      dims: 128
      data_type: 1
      name: "stage4.rebnconv1.bn_s1.bias"
  }
  initializer {
      dims: 128
      data_type: 1
      name: "stage4.rebnconv1.bn_s1.running_mean"
  }
  initializer {
      dims: 128
      data_type: 1
      name: "stage4.rebnconv1.bn_s1.running_var"
  }
  initializer {
      dims: 128
      data_type: 1
      name: "stage4.rebnconv1.bn_s1.weight"
  }
  initializer {
      dims: 128
      data_type: 1
      name: "stage4.rebnconv1.conv_s1.bias"
  }
  initializer {
      dims: 128
      dims: 512
      dims: 3
      dims: 3
      data_type: 1
      name: "stage4.rebnconv1.conv_s1.weight"
  }
  initializer {
      dims: 512
      data_type: 1
      name: "stage4.rebnconv1d.bn_s1.bias"
  }
  initializer {
      dims: 512
      data_type: 1
      name: "stage4.rebnconv1d.bn_s1.running_mean"
  }
  initializer {
      dims: 512
      data_type: 1
      name: "stage4.rebnconv1d.bn_s1.running_var"
  }
  initializer {
      dims: 512
      data_type: 1
      name: "stage4.rebnconv1d.bn_s1.weight"
  }
  initializer {
      dims: 512
      data_type: 1
      name: "stage4.rebnconv1d.conv_s1.bias"
  }
  initializer {
      dims: 512
      dims: 256
      dims: 3
      dims: 3
      data_type: 1
      name: "stage4.rebnconv1d.conv_s1.weight"
  }
  initializer {
      dims: 128
      data_type: 1
      name: "stage4.rebnconv2.bn_s1.bias"
  }
  initializer {
      dims: 128
      data_type: 1
      name: "stage4.rebnconv2.bn_s1.running_mean"
  }
  initializer {
      dims: 128
      data_type: 1
      name: "stage4.rebnconv2.bn_s1.running_var"
  }
  initializer {
      dims: 128
      data_type: 1
      name: "stage4.rebnconv2.bn_s1.weight"
  }
  initializer {
      dims: 128
      data_type: 1
      name: "stage4.rebnconv2.conv_s1.bias"
  }
  initializer {
      dims: 128
      dims: 128
      dims: 3
      dims: 3
      data_type: 1
      name: "stage4.rebnconv2.conv_s1.weight"
  }
  initializer {
      dims: 128
      data_type: 1
      name: "stage4.rebnconv2d.bn_s1.bias"
  }
  initializer {
      dims: 128
      data_type: 1
      name: "stage4.rebnconv2d.bn_s1.running_mean"
  }
  initializer {
      dims: 128
      data_type: 1
      name: "stage4.rebnconv2d.bn_s1.running_var"
  }
  initializer {
      dims: 128
      data_type: 1
      name: "stage4.rebnconv2d.bn_s1.weight"
  }
  initializer {
      dims: 128
      data_type: 1
      name: "stage4.rebnconv2d.conv_s1.bias"
  }
  initializer {
      dims: 128
      dims: 256
      dims: 3
      dims: 3
      data_type: 1
      name: "stage4.rebnconv2d.conv_s1.weight"
  }
  initializer {
      dims: 128
      data_type: 1
      name: "stage4.rebnconv3.bn_s1.bias"
  }
  initializer {
      dims: 128
      data_type: 1
      name: "stage4.rebnconv3.bn_s1.running_mean"
  }
  initializer {
      dims: 128
      data_type: 1
      name: "stage4.rebnconv3.bn_s1.running_var"
  }
  initializer {
      dims: 128
      data_type: 1
      name: "stage4.rebnconv3.bn_s1.weight"
  }
  initializer {
      dims: 128
      data_type: 1
      name: "stage4.rebnconv3.conv_s1.bias"
  }
  initializer {
      dims: 128
      dims: 128
      dims: 3
      dims: 3
      data_type: 1
      name: "stage4.rebnconv3.conv_s1.weight"
  }
  initializer {
      dims: 128
      data_type: 1
      name: "stage4.rebnconv3d.bn_s1.bias"
  }
  initializer {
      dims: 128
      data_type: 1
      name: "stage4.rebnconv3d.bn_s1.running_mean"
  }
  initializer {
      dims: 128
      data_type: 1
      name: "stage4.rebnconv3d.bn_s1.running_var"
  }
  initializer {
      dims: 128
      data_type: 1
      name: "stage4.rebnconv3d.bn_s1.weight"
  }
  initializer {
      dims: 128
      data_type: 1
      name: "stage4.rebnconv3d.conv_s1.bias"
  }
  initializer {
      dims: 128
      dims: 256
      dims: 3
      dims: 3
      data_type: 1
      name: "stage4.rebnconv3d.conv_s1.weight"
  }
  initializer {
      dims: 128
      data_type: 1
      name: "stage4.rebnconv4.bn_s1.bias"
  }
  initializer {
      dims: 128
      data_type: 1
      name: "stage4.rebnconv4.bn_s1.running_mean"
  }
  initializer {
      dims: 128
      data_type: 1
      name: "stage4.rebnconv4.bn_s1.running_var"
  }
  initializer {
      dims: 128
      data_type: 1
      name: "stage4.rebnconv4.bn_s1.weight"
  }
  initializer {
      dims: 128
      data_type: 1
      name: "stage4.rebnconv4.conv_s1.bias"
  }
  initializer {
      dims: 128
      dims: 128
      dims: 3
      dims: 3
      data_type: 1
      name: "stage4.rebnconv4.conv_s1.weight"
  }
  initializer {
      dims: 512
      data_type: 1
      name: "stage4.rebnconvin.bn_s1.bias"
  }
  initializer {
      dims: 512
      data_type: 1
      name: "stage4.rebnconvin.bn_s1.running_mean"
  }
  initializer {
      dims: 512
      data_type: 1
      name: "stage4.rebnconvin.bn_s1.running_var"
  }
  initializer {
      dims: 512
      data_type: 1
      name: "stage4.rebnconvin.bn_s1.weight"
  }
  initializer {
      dims: 512
      data_type: 1
      name: "stage4.rebnconvin.conv_s1.bias"
  }
  initializer {
      dims: 512
      dims: 256
      dims: 3
      dims: 3
      data_type: 1
      name: "stage4.rebnconvin.conv_s1.weight"
  }
  initializer {
      dims: 128
      data_type: 1
      name: "stage4d.rebnconv1.bn_s1.bias"
  }
  initializer {
      dims: 128
      data_type: 1
      name: "stage4d.rebnconv1.bn_s1.running_mean"
  }
  initializer {
      dims: 128
      data_type: 1
      name: "stage4d.rebnconv1.bn_s1.running_var"
  }
  initializer {
      dims: 128
      data_type: 1
      name: "stage4d.rebnconv1.bn_s1.weight"
  }
  initializer {
      dims: 128
      data_type: 1
      name: "stage4d.rebnconv1.conv_s1.bias"
  }
  initializer {
      dims: 128
      dims: 256
      dims: 3
      dims: 3
      data_type: 1
      name: "stage4d.rebnconv1.conv_s1.weight"
  }
  initializer {
      dims: 256
      data_type: 1
      name: "stage4d.rebnconv1d.bn_s1.bias"
  }
  initializer {
      dims: 256
      data_type: 1
      name: "stage4d.rebnconv1d.bn_s1.running_mean"
  }
  initializer {
      dims: 256
      data_type: 1
      name: "stage4d.rebnconv1d.bn_s1.running_var"
  }
  initializer {
      dims: 256
      data_type: 1
      name: "stage4d.rebnconv1d.bn_s1.weight"
  }
  initializer {
      dims: 256
      data_type: 1
      name: "stage4d.rebnconv1d.conv_s1.bias"
  }
  initializer {
      dims: 256
      dims: 256
      dims: 3
      dims: 3
      data_type: 1
      name: "stage4d.rebnconv1d.conv_s1.weight"
  }
  initializer {
      dims: 128
      data_type: 1
      name: "stage4d.rebnconv2.bn_s1.bias"
  }
  initializer {
      dims: 128
      data_type: 1
      name: "stage4d.rebnconv2.bn_s1.running_mean"
  }
  initializer {
      dims: 128
      data_type: 1
      name: "stage4d.rebnconv2.bn_s1.running_var"
  }
  initializer {
      dims: 128
      data_type: 1
      name: "stage4d.rebnconv2.bn_s1.weight"
  }
  initializer {
      dims: 128
      data_type: 1
      name: "stage4d.rebnconv2.conv_s1.bias"
  }
  initializer {
      dims: 128
      dims: 128
      dims: 3
      dims: 3
      data_type: 1
      name: "stage4d.rebnconv2.conv_s1.weight"
  }
  initializer {
      dims: 128
      data_type: 1
      name: "stage4d.rebnconv2d.bn_s1.bias"
  }
  initializer {
      dims: 128
      data_type: 1
      name: "stage4d.rebnconv2d.bn_s1.running_mean"
  }
  initializer {
      dims: 128
      data_type: 1
      name: "stage4d.rebnconv2d.bn_s1.running_var"
  }
  initializer {
      dims: 128
      data_type: 1
      name: "stage4d.rebnconv2d.bn_s1.weight"
  }
  initializer {
      dims: 128
      data_type: 1
      name: "stage4d.rebnconv2d.conv_s1.bias"
  }
  initializer {
      dims: 128
      dims: 256
      dims: 3
      dims: 3
      data_type: 1
      name: "stage4d.rebnconv2d.conv_s1.weight"
  }
  initializer {
      dims: 128
      data_type: 1
      name: "stage4d.rebnconv3.bn_s1.bias"
  }
  initializer {
      dims: 128
      data_type: 1
      name: "stage4d.rebnconv3.bn_s1.running_mean"
  }
  initializer {
      dims: 128
      data_type: 1
      name: "stage4d.rebnconv3.bn_s1.running_var"
  }
  initializer {
      dims: 128
      data_type: 1
      name: "stage4d.rebnconv3.bn_s1.weight"
  }
  initializer {
      dims: 128
      data_type: 1
      name: "stage4d.rebnconv3.conv_s1.bias"
  }
  initializer {
      dims: 128
      dims: 128
      dims: 3
      dims: 3
      data_type: 1
      name: "stage4d.rebnconv3.conv_s1.weight"
  }
  initializer {
      dims: 128
      data_type: 1
      name: "stage4d.rebnconv3d.bn_s1.bias"
  }
  initializer {
      dims: 128
      data_type: 1
      name: "stage4d.rebnconv3d.bn_s1.running_mean"
  }
  initializer {
      dims: 128
      data_type: 1
      name: "stage4d.rebnconv3d.bn_s1.running_var"
  }
  initializer {
      dims: 128
      data_type: 1
      name: "stage4d.rebnconv3d.bn_s1.weight"
  }
  initializer {
      dims: 128
      data_type: 1
      name: "stage4d.rebnconv3d.conv_s1.bias"
  }
  initializer {
      dims: 128
      dims: 256
      dims: 3
      dims: 3
      data_type: 1
      name: "stage4d.rebnconv3d.conv_s1.weight"
  }
  initializer {
      dims: 128
      data_type: 1
      name: "stage4d.rebnconv4.bn_s1.bias"
  }
  initializer {
      dims: 128
      data_type: 1
      name: "stage4d.rebnconv4.bn_s1.running_mean"
  }
  initializer {
      dims: 128
      data_type: 1
      name: "stage4d.rebnconv4.bn_s1.running_var"
  }
  initializer {
      dims: 128
      data_type: 1
      name: "stage4d.rebnconv4.bn_s1.weight"
  }
  initializer {
      dims: 128
      data_type: 1
      name: "stage4d.rebnconv4.conv_s1.bias"
  }
  initializer {
      dims: 128
      dims: 128
      dims: 3
      dims: 3
      data_type: 1
      name: "stage4d.rebnconv4.conv_s1.weight"
  }
  initializer {
      dims: 256
      data_type: 1
      name: "stage4d.rebnconvin.bn_s1.bias"
  }
  initializer {
      dims: 256
      data_type: 1
      name: "stage4d.rebnconvin.bn_s1.running_mean"
  }
  initializer {
      dims: 256
      data_type: 1
      name: "stage4d.rebnconvin.bn_s1.running_var"
  }
  initializer {
      dims: 256
      data_type: 1
      name: "stage4d.rebnconvin.bn_s1.weight"
  }
  initializer {
      dims: 256
      data_type: 1
      name: "stage4d.rebnconvin.conv_s1.bias"
  }
  initializer {
      dims: 256
      dims: 1024
      dims: 3
      dims: 3
      data_type: 1
      name: "stage4d.rebnconvin.conv_s1.weight"
  }
  initializer {
      dims: 256
      data_type: 1
      name: "stage5.rebnconv1.bn_s1.bias"
  }
  initializer {
      dims: 256
      data_type: 1
      name: "stage5.rebnconv1.bn_s1.running_mean"
  }
  initializer {
      dims: 256
      data_type: 1
      name: "stage5.rebnconv1.bn_s1.running_var"
  }
  initializer {
      dims: 256
      data_type: 1
      name: "stage5.rebnconv1.bn_s1.weight"
  }
  initializer {
      dims: 256
      data_type: 1
      name: "stage5.rebnconv1.conv_s1.bias"
  }
  initializer {
      dims: 256
      dims: 512
      dims: 3
      dims: 3
      data_type: 1
      name: "stage5.rebnconv1.conv_s1.weight"
  }
  initializer {
      dims: 512
      data_type: 1
      name: "stage5.rebnconv1d.bn_s1.bias"
  }
  initializer {
      dims: 512
      data_type: 1
      name: "stage5.rebnconv1d.bn_s1.running_mean"
  }
  initializer {
      dims: 512
      data_type: 1
      name: "stage5.rebnconv1d.bn_s1.running_var"
  }
  initializer {
      dims: 512
      data_type: 1
      name: "stage5.rebnconv1d.bn_s1.weight"
  }
  initializer {
      dims: 512
      data_type: 1
      name: "stage5.rebnconv1d.conv_s1.bias"
  }
  initializer {
      dims: 512
      dims: 512
      dims: 3
      dims: 3
      data_type: 1
      name: "stage5.rebnconv1d.conv_s1.weight"
  }
  initializer {
      dims: 256
      data_type: 1
      name: "stage5.rebnconv2.bn_s1.bias"
  }
  initializer {
      dims: 256
      data_type: 1
      name: "stage5.rebnconv2.bn_s1.running_mean"
  }
  initializer {
      dims: 256
      data_type: 1
      name: "stage5.rebnconv2.bn_s1.running_var"
  }
  initializer {
      dims: 256
      data_type: 1
      name: "stage5.rebnconv2.bn_s1.weight"
  }
  initializer {
      dims: 256
      data_type: 1
      name: "stage5.rebnconv2.conv_s1.bias"
  }
  initializer {
      dims: 256
      dims: 256
      dims: 3
      dims: 3
      data_type: 1
      name: "stage5.rebnconv2.conv_s1.weight"
  }
  initializer {
      dims: 256
      data_type: 1
      name: "stage5.rebnconv2d.bn_s1.bias"
  }
  initializer {
      dims: 256
      data_type: 1
      name: "stage5.rebnconv2d.bn_s1.running_mean"
  }
  initializer {
      dims: 256
      data_type: 1
      name: "stage5.rebnconv2d.bn_s1.running_var"
  }
  initializer {
      dims: 256
      data_type: 1
      name: "stage5.rebnconv2d.bn_s1.weight"
  }
  initializer {
      dims: 256
      data_type: 1
      name: "stage5.rebnconv2d.conv_s1.bias"
  }
  initializer {
      dims: 256
      dims: 512
      dims: 3
      dims: 3
      data_type: 1
      name: "stage5.rebnconv2d.conv_s1.weight"
  }
  initializer {
      dims: 256
      data_type: 1
      name: "stage5.rebnconv3.bn_s1.bias"
  }
  initializer {
      dims: 256
      data_type: 1
      name: "stage5.rebnconv3.bn_s1.running_mean"
  }
  initializer {
      dims: 256
      data_type: 1
      name: "stage5.rebnconv3.bn_s1.running_var"
  }
  initializer {
      dims: 256
      data_type: 1
      name: "stage5.rebnconv3.bn_s1.weight"
  }
  initializer {
      dims: 256
      data_type: 1
      name: "stage5.rebnconv3.conv_s1.bias"
  }
  initializer {
      dims: 256
      dims: 256
      dims: 3
      dims: 3
      data_type: 1
      name: "stage5.rebnconv3.conv_s1.weight"
  }
  initializer {
      dims: 256
      data_type: 1
      name: "stage5.rebnconv3d.bn_s1.bias"
  }
  initializer {
      dims: 256
      data_type: 1
      name: "stage5.rebnconv3d.bn_s1.running_mean"
  }
  initializer {
      dims: 256
      data_type: 1
      name: "stage5.rebnconv3d.bn_s1.running_var"
  }
  initializer {
      dims: 256
      data_type: 1
      name: "stage5.rebnconv3d.bn_s1.weight"
  }
  initializer {
      dims: 256
      data_type: 1
      name: "stage5.rebnconv3d.conv_s1.bias"
  }
  initializer {
      dims: 256
      dims: 512
      dims: 3
      dims: 3
      data_type: 1
      name: "stage5.rebnconv3d.conv_s1.weight"
  }
  initializer {
      dims: 256
      data_type: 1
      name: "stage5.rebnconv4.bn_s1.bias"
  }
  initializer {
      dims: 256
      data_type: 1
      name: "stage5.rebnconv4.bn_s1.running_mean"
  }
  initializer {
      dims: 256
      data_type: 1
      name: "stage5.rebnconv4.bn_s1.running_var"
  }
  initializer {
      dims: 256
      data_type: 1
      name: "stage5.rebnconv4.bn_s1.weight"
  }
  initializer {
      dims: 256
      data_type: 1
      name: "stage5.rebnconv4.conv_s1.bias"
  }
  initializer {
      dims: 256
      dims: 256
      dims: 3
      dims: 3
      data_type: 1
      name: "stage5.rebnconv4.conv_s1.weight"
  }
  initializer {
      dims: 512
      data_type: 1
      name: "stage5.rebnconvin.bn_s1.bias"
  }
  initializer {
      dims: 512
      data_type: 1
      name: "stage5.rebnconvin.bn_s1.running_mean"
  }
  initializer {
      dims: 512
      data_type: 1
      name: "stage5.rebnconvin.bn_s1.running_var"
  }
  initializer {
      dims: 512
      data_type: 1
      name: "stage5.rebnconvin.bn_s1.weight"
  }
  initializer {
      dims: 512
      data_type: 1
      name: "stage5.rebnconvin.conv_s1.bias"
  }
  initializer {
      dims: 512
      dims: 512
      dims: 3
      dims: 3
      data_type: 1
      name: "stage5.rebnconvin.conv_s1.weight"
  }
  initializer {
      dims: 256
      data_type: 1
      name: "stage5d.rebnconv1.bn_s1.bias"
  }
  initializer {
      dims: 256
      data_type: 1
      name: "stage5d.rebnconv1.bn_s1.running_mean"
  }
  initializer {
      dims: 256
      data_type: 1
      name: "stage5d.rebnconv1.bn_s1.running_var"
  }
  initializer {
      dims: 256
      data_type: 1
      name: "stage5d.rebnconv1.bn_s1.weight"
  }
  initializer {
      dims: 256
      data_type: 1
      name: "stage5d.rebnconv1.conv_s1.bias"
  }
  initializer {
      dims: 256
      dims: 512
      dims: 3
      dims: 3
      data_type: 1
      name: "stage5d.rebnconv1.conv_s1.weight"
  }
  initializer {
      dims: 512
      data_type: 1
      name: "stage5d.rebnconv1d.bn_s1.bias"
  }
  initializer {
      dims: 512
      data_type: 1
      name: "stage5d.rebnconv1d.bn_s1.running_mean"
  }
  initializer {
      dims: 512
      data_type: 1
      name: "stage5d.rebnconv1d.bn_s1.running_var"
  }
  initializer {
      dims: 512
      data_type: 1
      name: "stage5d.rebnconv1d.bn_s1.weight"
  }
  initializer {
      dims: 512
      data_type: 1
      name: "stage5d.rebnconv1d.conv_s1.bias"
  }
  initializer {
      dims: 512
      dims: 512
      dims: 3
      dims: 3
      data_type: 1
      name: "stage5d.rebnconv1d.conv_s1.weight"
  }
  initializer {
      dims: 256
      data_type: 1
      name: "stage5d.rebnconv2.bn_s1.bias"
  }
  initializer {
      dims: 256
      data_type: 1
      name: "stage5d.rebnconv2.bn_s1.running_mean"
  }
  initializer {
      dims: 256
      data_type: 1
      name: "stage5d.rebnconv2.bn_s1.running_var"
  }
  initializer {
      dims: 256
      data_type: 1
      name: "stage5d.rebnconv2.bn_s1.weight"
  }
  initializer {
      dims: 256
      data_type: 1
      name: "stage5d.rebnconv2.conv_s1.bias"
  }
  initializer {
      dims: 256
      dims: 256
      dims: 3
      dims: 3
      data_type: 1
      name: "stage5d.rebnconv2.conv_s1.weight"
  }
  initializer {
      dims: 256
      data_type: 1
      name: "stage5d.rebnconv2d.bn_s1.bias"
  }
  initializer {
      dims: 256
      data_type: 1
      name: "stage5d.rebnconv2d.bn_s1.running_mean"
  }
  initializer {
      dims: 256
      data_type: 1
      name: "stage5d.rebnconv2d.bn_s1.running_var"
  }
  initializer {
      dims: 256
      data_type: 1
      name: "stage5d.rebnconv2d.bn_s1.weight"
  }
  initializer {
      dims: 256
      data_type: 1
      name: "stage5d.rebnconv2d.conv_s1.bias"
  }
  initializer {
      dims: 256
      dims: 512
      dims: 3
      dims: 3
      data_type: 1
      name: "stage5d.rebnconv2d.conv_s1.weight"
  }
  initializer {
      dims: 256
      data_type: 1
      name: "stage5d.rebnconv3.bn_s1.bias"
  }
  initializer {
      dims: 256
      data_type: 1
      name: "stage5d.rebnconv3.bn_s1.running_mean"
  }
  initializer {
      dims: 256
      data_type: 1
      name: "stage5d.rebnconv3.bn_s1.running_var"
  }
  initializer {
      dims: 256
      data_type: 1
      name: "stage5d.rebnconv3.bn_s1.weight"
  }
  initializer {
      dims: 256
      data_type: 1
      name: "stage5d.rebnconv3.conv_s1.bias"
  }
  initializer {
      dims: 256
      dims: 256
      dims: 3
      dims: 3
      data_type: 1
      name: "stage5d.rebnconv3.conv_s1.weight"
  }
  initializer {
      dims: 256
      data_type: 1
      name: "stage5d.rebnconv3d.bn_s1.bias"
  }
  initializer {
      dims: 256
      data_type: 1
      name: "stage5d.rebnconv3d.bn_s1.running_mean"
  }
  initializer {
      dims: 256
      data_type: 1
      name: "stage5d.rebnconv3d.bn_s1.running_var"
  }
  initializer {
      dims: 256
      data_type: 1
      name: "stage5d.rebnconv3d.bn_s1.weight"
  }
  initializer {
      dims: 256
      data_type: 1
      name: "stage5d.rebnconv3d.conv_s1.bias"
  }
  initializer {
      dims: 256
      dims: 512
      dims: 3
      dims: 3
      data_type: 1
      name: "stage5d.rebnconv3d.conv_s1.weight"
  }
  initializer {
      dims: 256
      data_type: 1
      name: "stage5d.rebnconv4.bn_s1.bias"
  }
  initializer {
      dims: 256
      data_type: 1
      name: "stage5d.rebnconv4.bn_s1.running_mean"
  }
  initializer {
      dims: 256
      data_type: 1
      name: "stage5d.rebnconv4.bn_s1.running_var"
  }
  initializer {
      dims: 256
      data_type: 1
      name: "stage5d.rebnconv4.bn_s1.weight"
  }
  initializer {
      dims: 256
      data_type: 1
      name: "stage5d.rebnconv4.conv_s1.bias"
  }
  initializer {
      dims: 256
      dims: 256
      dims: 3
      dims: 3
      data_type: 1
      name: "stage5d.rebnconv4.conv_s1.weight"
  }
  initializer {
      dims: 512
      data_type: 1
      name: "stage5d.rebnconvin.bn_s1.bias"
  }
  initializer {
      dims: 512
      data_type: 1
      name: "stage5d.rebnconvin.bn_s1.running_mean"
  }
  initializer {
      dims: 512
      data_type: 1
      name: "stage5d.rebnconvin.bn_s1.running_var"
  }
  initializer {
      dims: 512
      data_type: 1
      name: "stage5d.rebnconvin.bn_s1.weight"
  }
  initializer {
      dims: 512
      data_type: 1
      name: "stage5d.rebnconvin.conv_s1.bias"
  }
  initializer {
      dims: 512
      dims: 1024
      dims: 3
      dims: 3
      data_type: 1
      name: "stage5d.rebnconvin.conv_s1.weight"
  }
  initializer {
      dims: 256
      data_type: 1
      name: "stage6.rebnconv1.bn_s1.bias"
  }
  initializer {
      dims: 256
      data_type: 1
      name: "stage6.rebnconv1.bn_s1.running_mean"
  }
  initializer {
      dims: 256
      data_type: 1
      name: "stage6.rebnconv1.bn_s1.running_var"
  }
  initializer {
      dims: 256
      data_type: 1
      name: "stage6.rebnconv1.bn_s1.weight"
  }
  initializer {
      dims: 256
      data_type: 1
      name: "stage6.rebnconv1.conv_s1.bias"
  }
  initializer {
      dims: 256
      dims: 512
      dims: 3
      dims: 3
      data_type: 1
      name: "stage6.rebnconv1.conv_s1.weight"
  }
  initializer {
      dims: 512
      data_type: 1
      name: "stage6.rebnconv1d.bn_s1.bias"
  }
  initializer {
      dims: 512
      data_type: 1
      name: "stage6.rebnconv1d.bn_s1.running_mean"
  }
  initializer {
      dims: 512
      data_type: 1
      name: "stage6.rebnconv1d.bn_s1.running_var"
  }
  initializer {
      dims: 512
      data_type: 1
      name: "stage6.rebnconv1d.bn_s1.weight"
  }
  initializer {
      dims: 512
      data_type: 1
      name: "stage6.rebnconv1d.conv_s1.bias"
  }
  initializer {
      dims: 512
      dims: 512
      dims: 3
      dims: 3
      data_type: 1
      name: "stage6.rebnconv1d.conv_s1.weight"
  }
  initializer {
      dims: 256
      data_type: 1
      name: "stage6.rebnconv2.bn_s1.bias"
  }
  initializer {
      dims: 256
      data_type: 1
      name: "stage6.rebnconv2.bn_s1.running_mean"
  }
  initializer {
      dims: 256
      data_type: 1
      name: "stage6.rebnconv2.bn_s1.running_var"
  }
  initializer {
      dims: 256
      data_type: 1
      name: "stage6.rebnconv2.bn_s1.weight"
  }
  initializer {
      dims: 256
      data_type: 1
      name: "stage6.rebnconv2.conv_s1.bias"
  }
  initializer {
      dims: 256
      dims: 256
      dims: 3
      dims: 3
      data_type: 1
      name: "stage6.rebnconv2.conv_s1.weight"
  }
  initializer {
      dims: 256
      data_type: 1
      name: "stage6.rebnconv2d.bn_s1.bias"
  }
  initializer {
      dims: 256
      data_type: 1
      name: "stage6.rebnconv2d.bn_s1.running_mean"
  }
  initializer {
      dims: 256
      data_type: 1
      name: "stage6.rebnconv2d.bn_s1.running_var"
  }
  initializer {
      dims: 256
      data_type: 1
      name: "stage6.rebnconv2d.bn_s1.weight"
  }
  initializer {
      dims: 256
      data_type: 1
      name: "stage6.rebnconv2d.conv_s1.bias"
  }
  initializer {
      dims: 256
      dims: 512
      dims: 3
      dims: 3
      data_type: 1
      name: "stage6.rebnconv2d.conv_s1.weight"
  }
  initializer {
      dims: 256
      data_type: 1
      name: "stage6.rebnconv3.bn_s1.bias"
  }
  initializer {
      dims: 256
      data_type: 1
      name: "stage6.rebnconv3.bn_s1.running_mean"
  }
  initializer {
      dims: 256
      data_type: 1
      name: "stage6.rebnconv3.bn_s1.running_var"
  }
  initializer {
      dims: 256
      data_type: 1
      name: "stage6.rebnconv3.bn_s1.weight"
  }
  initializer {
      dims: 256
      data_type: 1
      name: "stage6.rebnconv3.conv_s1.bias"
  }
  initializer {
      dims: 256
      dims: 256
      dims: 3
      dims: 3
      data_type: 1
      name: "stage6.rebnconv3.conv_s1.weight"
  }
  initializer {
      dims: 256
      data_type: 1
      name: "stage6.rebnconv3d.bn_s1.bias"
  }
  initializer {
      dims: 256
      data_type: 1
      name: "stage6.rebnconv3d.bn_s1.running_mean"
  }
  initializer {
      dims: 256
      data_type: 1
      name: "stage6.rebnconv3d.bn_s1.running_var"
  }
  initializer {
      dims: 256
      data_type: 1
      name: "stage6.rebnconv3d.bn_s1.weight"
  }
  initializer {
      dims: 256
      data_type: 1
      name: "stage6.rebnconv3d.conv_s1.bias"
  }
  initializer {
      dims: 256
      dims: 512
      dims: 3
      dims: 3
      data_type: 1
      name: "stage6.rebnconv3d.conv_s1.weight"
  }
  initializer {
      dims: 256
      data_type: 1
      name: "stage6.rebnconv4.bn_s1.bias"
  }
  initializer {
      dims: 256
      data_type: 1
      name: "stage6.rebnconv4.bn_s1.running_mean"
  }
  initializer {
      dims: 256
      data_type: 1
      name: "stage6.rebnconv4.bn_s1.running_var"
  }
  initializer {
      dims: 256
      data_type: 1
      name: "stage6.rebnconv4.bn_s1.weight"
  }
  initializer {
      dims: 256
      data_type: 1
      name: "stage6.rebnconv4.conv_s1.bias"
  }
  initializer {
      dims: 256
      dims: 256
      dims: 3
      dims: 3
      data_type: 1
      name: "stage6.rebnconv4.conv_s1.weight"
  }
  initializer {
      dims: 512
      data_type: 1
      name: "stage6.rebnconvin.bn_s1.bias"
  }
  initializer {
      dims: 512
      data_type: 1
      name: "stage6.rebnconvin.bn_s1.running_mean"
  }
  initializer {
      dims: 512
      data_type: 1
      name: "stage6.rebnconvin.bn_s1.running_var"
  }
  initializer {
      dims: 512
      data_type: 1
      name: "stage6.rebnconvin.bn_s1.weight"
  }
  initializer {
      dims: 512
      data_type: 1
      name: "stage6.rebnconvin.conv_s1.bias"
  }
  initializer {
      dims: 512
      dims: 512
      dims: 3
      dims: 3
      data_type: 1
      name: "stage6.rebnconvin.conv_s1.weight"
  }
  input {
    name: "input.1"
    type {
      tensor_type {
        elem_type: 1
        shape {
          dim {
            dim_value: 1
          }
          dim {
            dim_value: 3
          }
          dim {
            dim_value: 320
          }
          dim {
            dim_value: 320
          }
        }
      }
    }
  }
  output {
    name: "1959"
    type {
      tensor_type {
        elem_type: 1
        shape {
          dim {
            dim_value: 1
          }
          dim {
            dim_value: 1
          }
          dim {
            dim_value: 320
          }
          dim {
            dim_value: 320
          }
        }
      }
    }
  }
  output {
    name: "1960"
    type {
      tensor_type {
        elem_type: 1
        shape {
          dim {
            dim_value: 1
          }
          dim {
            dim_value: 1
          }
          dim {
            dim_value: 320
          }
          dim {
            dim_value: 320
          }
        }
      }
    }
  }
  output {
    name: "1961"
    type {
      tensor_type {
        elem_type: 1
        shape {
          dim {
            dim_value: 1
          }
          dim {
            dim_value: 1
          }
          dim {
            dim_value: 320
          }
          dim {
            dim_value: 320
          }
        }
      }
    }
  }
  output {
    name: "1962"
    type {
      tensor_type {
        elem_type: 1
        shape {
          dim {
            dim_value: 1
          }
          dim {
            dim_value: 1
          }
          dim {
            dim_value: 320
          }
          dim {
            dim_value: 320
          }
        }
      }
    }
  }
  output {
    name: "1963"
    type {
      tensor_type {
        elem_type: 1
        shape {
          dim {
            dim_value: 1
          }
          dim {
            dim_value: 1
          }
          dim {
            dim_value: 320
          }
          dim {
            dim_value: 320
          }
        }
      }
    }
  }
  output {
    name: "1964"
    type {
      tensor_type {
        elem_type: 1
        shape {
          dim {
            dim_value: 1
          }
          dim {
            dim_value: 1
          }
          dim {
            dim_value: 320
          }
          dim {
            dim_value: 320
          }
        }
      }
    }
  }
  output {
    name: "1965"
    type {
      tensor_type {
        elem_type: 1
        shape {
          dim {
            dim_value: 1
          }
          dim {
            dim_value: 1
          }
          dim {
            dim_value: 320
          }
          dim {
            dim_value: 320
          }
        }
      }
    }
  }
}
opset_import {
  version: 11
}
